Models/colorization_model1_epoch2000.pth (torch, 279085 bytes, 20 tensors)

layer1.0.weight f4 [32, 1, 4, 4]
000000 5a ce 1f be 5a 32 3f be a7 3b 33 bd 7a dd 9c bd
       -0.1560606 -0.18671551 -0.04375806 -0.07659431
000010 c6 28 9e bd 35 e5 1e 3e 16 7b 5d 3e a9 0e b5 3e
       -0.07722621 0.15517123 0.21628985 0.35362747
000020 98 9a 16 be d1 bb 15 be 0f f9 e1 bd 52 84 09 3e
       -0.1470741 -0.14622428 -0.11033832 0.13429382
000030 ec 63 34 be 45 b4 65 bd f6 36 a4 3d af 26 2e 3e
       -0.17616242 -0.05608012 0.080182955 0.17006944
000040 46 fd b1 3d 6d c8 aa bd e6 b4 7a be d2 85 3c 3e
       0.08690886 -0.083390094 -0.2448307 0.18410423
000050 79 9e 9b bd 73 3b 57 3e 3c 2d 6b 3b 42 d4 4c bd
       -0.07598586 0.21018772 0.0035885116 -0.050007112
000060 8c 3c 2d 3e 18 89 a5 3c 05 56 5c 3e 98 92 02 3e
       0.16917628 0.020206973 0.21517189 0.12751234
000070 bc e3 42 be 5e 3d 7c be 70 ee 84 3d f4 d0 47 be
       -0.19032186 -0.24632785 0.06490791 -0.19513303
000080 43 db 81 3d 3f 16 98 3c 0b 97 48 bd c7 50 e8 3d
       0.06340649 0.018565295 -0.04897217 0.11343532
000090 66 bf 97 3d 36 46 76 3e f1 2c 82 be 4d d4 8b bd
       0.07409553 0.24050221 -0.25424913 -0.068276025
0000a0 7a 1a 14 bd 78 38 90 bd 16 52 5c be de d3 0e bd
       -0.036158063 -0.070420206 -0.21515688 -0.03487002
0000b0 8c 0d fb bc 17 17 2b 3d 3e fd ec bc e1 33 7f 3e
       -0.030646108 0.041770067 -0.028929349 0.24922134
0000c0 c7 96 5d 3e 4f 10 eb bc 88 d9 87 bc f8 12 c1 3d
       0.21639548 -0.0286943 -0.01658322 0.09427446
0000d0 ab ef 1c 3e a7 2e 3b 3d 0d 08 af 3c 6e dc 7e 3d
       0.15325801 0.045698788 0.021366144 0.062221937
0000e0 0f 7f a4 3d 74 e0 24 3e 49 2a ad bd 73 17 7c be
       0.08032047 0.16101247 -0.08455331 -0.2461832
0000f0 6d 04 07 be 15 2d 92 3d cf e3 1a 3b c5 c6 8d be
       -0.13185282 0.07137505 0.002363432 -0.27690712
000100 9a 40 d0 3d da d4 b9 bd 9f 17 bc 3d dc 7e 04 be
       0.10168572 -0.09073801 0.09184193 -0.12939018
000110 56 93 df bd ea d5 1d 3e 69 1e 8c be 71 68 66 be
       -0.10916774 0.15413633 -0.2736695 -0.22500779
000120 04 2c 6a be 43 2c 4a 3e 81 3e 1f 3e 23 3b 6c 3e
       -0.22868353 0.19743447 0.15551187 0.23069434
000130 67 cc 3c 3e b5 92 40 3e a6 25 ca 3d 3a bd 6f be
       0.18437348 0.18805964 0.09870462 -0.23412028
000140 86 e7 99 3d 9b 44 9d bd ef 74 88 3e ec 97 ef bb
       0.07514863 -0.07679101 0.26651713 -0.0073118117
000150 e1 bb 47 3e 49 3c 6e 3e de 33 57 be 92 32 73 be
       0.19505264 0.23265184 -0.2101588 -0.2374976
000160 a7 bb ee 3d 79 69 0b be 72 22 58 be b1 1a ad bc
       0.116568856 -0.13614453 -0.2110689 -0.021130892
000170 92 ad 92 bd 9a ca 70 3d 8e a2 ff 3d b2 88 4a be
       -0.07162012 0.058786966 0.12482177 -0.19778708
000180 39 62 18 be 5e 38 64 be ca 1b 82 be 3a 88 cc 3d
       -0.14881219 -0.22287127 -0.25411826 0.09986921
000190 5d 72 10 3e e5 c0 75 be 7b 26 87 bd 8e 2c 39 3e
       0.14106126 -0.23999365 -0.065991364 0.18083403
0001a0 a8 5d 57 3e 1b 12 39 3e da 14 10 3e 61 3b 9a 3d
       0.21031821 0.18073313 0.14070454 0.07530857
0001b0 53 c8 db 3d 5c e2 5f 3d ef 4d 4b bd b4 95 11 be
       0.10731568 0.054659232 -0.04963487 -0.14217263
0001c0 53 1c dd bd d4 e8 68 3e 73 85 0f be 6d 6a 83 3e
       -0.10796418 0.22745067 -0.1401575 0.25667134
0001d0 d8 c7 1d be c5 cf 93 bd 95 1b 8f 3e 77 0e 0c 3e
       -0.15408266 -0.07217363 0.2795073 0.13677393
0001e0 37 3e 83 be 07 f5 90 bd 7d 99 e3 bd 6b 23 64 bd
       -0.25633404 -0.07077985 -0.1111326 -0.05569784
0001f0 db d0 49 be 11 a9 f5 bd ff 5f d6 3d 9c 66 8a 3e
       -0.19708578 -0.119951375 0.104675286 0.2703141
000200 db 1e d1 bd a7 33 af 3d 6b bf f8 3d 28 58 a4 bd
       -0.10210963 0.08554774 0.12145885 -0.08024627
000210 19 04 08 3e 81 f8 cc 3d f9 df 60 3d 4d 95 b1 3d
       0.13282813 0.10008336 0.054901097 0.08671055
000220 e0 f0 a9 bd 6a 2e 2a be b4 d9 94 3e bd c3 ba bd
       -0.082978964 -0.16619268 0.29072344 -0.09119365
000230 a5 16 1e be 1e 27 92 be 85 da 8b bc 71 09 f6 bd
       -0.15438326 -0.2854547 -0.017071972 -0.120135196
000240 30 87 87 3d 97 d9 31 be db af 01 be db 5a 28 3e
       0.06617582 -0.1736816 -0.1266474 0.16440909
000250 bf 8b 3d be 70 bf 60 3e 26 d6 19 be 9a ae c4 bd
       -0.1851034 0.21948028 -0.15023097 -0.09603615
000260 2e ca fc 3d d8 df 46 3e 11 99 02 3e 10 f2 4d 3d
       0.1234325 0.19421327 0.12753703 0.050279677
000270 ad a5 52 be 63 74 2a 3e 46 26 69 3d 16 b9 70 be
       -0.20571013 0.1664596 0.056921266 -0.23508105
000280 56 44 0c 3c 1c cf 14 be dd 01 f9 3d 87 47 81 3c
       0.008561214 -0.14532131 0.121585585 0.015781177
000290 2b 4a 7e 3e 6c 23 1e 3d a5 f9 d5 bd 1f c5 65 be
       0.2483298 0.038608 -0.104480065 -0.22438477
0002a0 99 79 7c 3e bd 46 40 3e dd a6 3f be a8 89 8d be
       0.24655761 0.18776985 -0.18715997 -0.27644086
0002b0 a8 99 b2 bc a5 fc 4a 3e 67 e4 30 be ad e0 72 3d
       -0.021801785 0.19822939 -0.17274629 0.0592963
0002c0 53 b7 b3 3c bd a0 40 3e 30 1a ad 3b 99 30 4b be
       0.021938002 0.18811317 0.005282663 -0.19842757
0002d0 48 eb ad bd c2 2c 0e be 96 24 5f 3e 63 1e c4 3d
       -0.08492142 -0.13884261 0.217913 0.09576108
0002e0 f5 11 ce bc 51 db 22 3e 59 24 f1 3d b1 73 50 3e
       -0.025155047 0.15903975 0.11774511 0.20356633
0002f0 43 fb 91 3d 98 43 40 be e0 53 83 be 01 45 71 be
       0.071280025 -0.18775785 -0.2564993 -0.23561479
000300 40 e2 ab bd 45 39 76 be 08 c8 3f be e0 f3 b5 bd
       -0.08392763 -0.24045284 -0.1872865 -0.08884406
000310 3c 21 e5 3d 2b 06 70 3e bb ca 63 3e b6 c4 4c 3d
       0.111879796 0.23439853 0.22245304 0.049992286
000320 2b 1b 73 3e ff 62 3d bd 28 32 47 be 44 93 19 bd
       0.23740833 -0.04623699 -0.19452727 -0.03749396
000330 68 fc 38 3d 6a 74 ff bd bd 90 31 3e 93 4c 52 bd
       0.04516259 -0.12473376 0.1734037 -0.051342558
000340 12 78 72 3e b7 ed 1c be 46 c8 52 3e 5f 0a 1a bd
       0.23678616 -0.15325056 0.20584211 -0.037607547
000350 8e 33 b0 3e a5 13 27 3e cf d8 4f bd da e9 00 bd
       0.34414333 0.16316088 -0.050743874 -0.03147302
000360 a3 f9 83 3e f9 72 4c 3e da 6b ca 3d b0 bf 72 bd
       0.25776395 0.19965734 0.09883852 -0.05926484
000370 a3 9d 5f 3e 70 1a 8c 3e b1 e9 30 bd 1d 54 61 3c
       0.21837477 0.2736392 -0.043191615 0.013752964
000380 84 f9 3d 3d a2 65 9e 3b 0c 7a 85 3e 64 fd c3 3e
       0.046380535 0.004833893 0.26069677 0.3827926
000390 07 7d 0d 3e 57 36 46 be c1 78 c9 3d e8 e9 4f 3e
       0.13817225 -0.19356667 0.09837485 0.20304072
0003a0 76 49 d9 bb 09 00 10 be c7 33 01 bd ff 55 2c 3e
       -0.0066310717 -0.14062513 -0.03154352 0.1682968
0003b0 37 bd aa bd 48 80 c8 bd c8 84 73 bd 84 08 00 3b
       -0.08336871 -0.09790093 -0.059452802 0.0019536326
0003c0 84 64 81 3e 88 ca 86 3e 74 8e 9b 3d 6c 67 36 be
       0.25272 0.26326394 0.0759553 -0.1781289
0003d0 b6 a8 46 3e 45 a6 94 bd 0c 2c 20 3e 29 0f a8 bd
       0.19400296 -0.07258276 0.15641803 -0.082060166
0003e0 55 94 36 be d0 44 8a 3e 9f d4 49 3d fd d2 52 be
       -0.17830022 0.27005625 0.049275037 -0.20588298
0003f0 b6 e3 21 3d c3 65 47 be 86 27 40 be 8f b1 3a be
       0.039523803 -0.19472413 -0.18765077 -0.18231796

layer1.0.bias f4 [32]
000000 3c 7f 9b 3d 1c 49 7c 3d e0 e4 5b be 09 88 43 3e
       0.075926274 0.06159316 -0.21474028 0.19094862
000010 a7 b3 be bb 1e 8f 02 3e 61 03 04 be 6d 9a 7d bc
       -0.005819756 0.12749907 -0.12891914 -0.0154787125
000020 d0 f5 18 3e 4d ba 67 be f4 85 5f be ce a9 27 be
       0.1493752 -0.22629662 -0.21828443 -0.16373369
000030 c2 db 36 3e 5e cb d7 3d 47 83 ba 3d 97 fc 1c 3e
       0.17857268 0.10536836 0.091070704 0.1533073
000040 12 46 30 3e bf 6a 87 3d 4a 78 7b be c0 84 f5 3d
       0.1721423 0.06612157 -0.24557605 0.11988211
000050 de 47 93 bd e5 1c 21 3e 1d 60 45 3e 0b d4 62 3e
       -0.07191442 0.15733679 0.19274946 0.221512
000060 b6 b8 68 be 86 bb 53 3e e1 99 0d 3e 5f 77 31 be
       -0.22726712 0.20677003 0.13828231 -0.17330693
000070 0a bc 77 bd fd 2b 54 be 39 a1 69 3d ff c8 20 3e
       -0.060482062 -0.20719905 0.05703852 0.15701674

layer1.1.weight f4 [32]
000000 5f bb 81 3f 92 b5 7a 3f 7c 2c 71 3f ce c7 65 3f
       1.0135306 0.97933304 0.942085 0.89758
000010 b1 df 76 3f 79 b7 76 3f cf d4 59 3f 01 57 8c 3f
       0.96435076 0.9637371 0.85090345 1.0964051
000020 b0 d9 61 3f 44 8f 82 3f 08 e0 94 3f 05 09 7e 3f
       0.8822279 1.0199971 1.1630869 0.9923251
000030 ad 0f 69 3f 6e 11 53 3f 51 c5 6c 3f 8f bd 83 3f
       0.91039544 0.8244847 0.9248858 1.0292224
000040 bd 51 52 3f 6f 95 6a 3f 77 ca 6f 3f 7b c1 86 3f
       0.8215597 0.9163427 0.9366831 1.0527796
000050 62 9d 7a 3f 4a 3b 66 3f 46 87 65 3f e0 04 88 3f
       0.978964 0.8993422 0.89659536 1.0626488
000060 c7 b3 82 3f b6 67 6f 3f d1 44 8a 3f 2a 01 49 3f
       1.0211114 0.93517625 1.0802251 0.785174
000070 17 88 6f 3f 46 ad 77 3f 5d 3f 73 3f 91 84 6f 3f
       0.9356703 0.9674877 0.9501856 0.93561655

layer1.1.bias f4 [32]
000000 03 07 af bd 0d 03 01 3c 25 a8 06 be 3a a9 c7 3c
       -0.08546259 0.0078742625 -0.1315008 0.024372686
000010 65 a0 68 3d 03 74 d8 bc 83 0b 07 3e e4 5b 4a 3c
       0.05679359 -0.026422506 0.13187985 0.01235101
000020 99 09 d1 bd 38 01 0c 3d 36 1a b3 bc 2f 85 1e be
       -0.10206909 0.03418085 -0.021863084 -0.15480493
000030 4c 4c 00 3e f7 73 d5 bd d9 f4 51 3d bc e2 e8 bd
       0.12529105 -0.10422509 0.051258896 -0.11371371
000040 b4 a6 64 3d 0b 46 2b be 5f 46 8d 3b 00 3c 1b 3d
       0.055823043 -0.16725938 0.0043113674 0.037899017
000050 5c b8 57 3d f1 04 1d be 0c 42 09 bc 94 56 42 3c
       0.052666053 -0.15333916 -0.008377563 0.011861462
000060 8d 84 0e be 9a c9 1e bd 35 b9 5f bd 70 a7 7c be
       -0.13917752 -0.03876648 -0.054619987 -0.24673247
000070 3a 45 44 be 46 0b cd 3d 82 cc 23 3e d3 84 99 3c
       -0.19167033 0.10011916 0.15995982 0.018740093

layer1.1.running_mean f4 [32]
000000 97 c2 3f c0 cc a4 bd 3c a9 02 77 3e 2f 0d c2 40
       -2.9962518 0.02314987 0.24122109 6.0641093
000010 c3 f1 a9 40 8d 02 93 c0 28 2e 43 40 26 7f 08 bf
       5.310762 -4.5940614 3.0496922 -0.53319013
000020 93 a7 25 c1 7c 4c 73 be ca ab 1b bf d7 3a 0a c0
       -10.353412 -0.23759645 -0.60809004 -2.1598413
000030 bd 9f 96 3f 30 f6 99 42 f6 db 01 42 36 ca 9a 3f
       1.1767498 76.980835 32.464806 1.209296
000040 60 58 a3 c2 31 58 81 c0 c8 38 a3 3f 95 8c 0b 3f
       -81.67261 -4.0420156 1.2751703 0.54511386
000050 8e de 59 bd 85 91 d1 40 c1 db bd bf f2 0b 98 3e
       -0.05319076 6.5490136 -1.4832689 0.29696614
000060 0b 06 2a bf 8c 30 f6 bf 4f 3d ff be 46 4f 7a c1
       -0.6641547 -1.9233565 -0.49851462 -15.644354
000070 59 5a b0 be 04 1f 0d 40 be 6a 81 3f 2c 65 8d 3d
       -0.3444393 2.205018 1.01107 0.06904063

layer1.1.running_var f4 [32]
000000 e0 be 82 42 8d f8 8e 41 16 9b 59 41 92 b4 47 42
       65.3728 17.871363 13.600363 49.92634
000010 3a 79 0f 42 35 e7 24 42 34 60 25 42 27 8d 8f 42
       35.868385 41.22579 41.34395 71.77569
000020 72 4c 76 42 50 ef 61 41 f9 60 51 42 a4 e5 be 41
       61.574654 14.120926 52.3447 23.86213
000030 dc cc ca 41 b5 b5 e4 44 82 f0 bb 43 b1 3a 8f 42
       25.350029 1829.6783 375.87897 71.61463
000040 52 da 00 45 72 b5 1e 42 1d e3 a7 41 15 2f 12 42
       2061.645 39.677193 20.985895 36.54598
000050 f7 2d 39 42 9b de 15 42 3e ed 4d 41 ee a0 1e 41
       46.294888 37.46739 12.87042 9.914289
000060 09 d6 44 41 5d f3 35 41 e2 d5 1d 42 27 ad b3 42
       12.302255 11.371915 39.45887 89.83819
000070 68 f8 1f 41 9d 35 2c 42 c0 d1 cb 41 73 72 c8 40
       9.998146 43.052357 25.477417 6.263971

layer2.0.weight f4 [64, 32, 4, 4]
000000 23 1e b3 bd ce 30 12 bd a4 0d 25 bd ef 17 90 bd
       -0.087459825 -0.035691075 -0.04029621 -0.07035815
000010 bd 0c b0 bc 94 fe 70 bd 1b 46 57 bd 9f ac 87 bc
       -0.02149045 -0.058836535 -0.052557092 -0.016561804
000020 51 f5 b3 bd 23 f4 59 bd 1a 93 92 bd bd 24 96 3b
       -0.08787025 -0.053211343 -0.07156964 0.0045820163
000030 ac b2 58 bd 2a ab 6c bd af 65 80 bd cc e7 a1 bd
       -0.05290477 -0.057780422 -0.062693946 -0.0790554
000040 ce 84 bc 3c a7 c8 0e 3d 07 14 96 3b ed 72 f2 3c
       0.023012545 0.034859326 0.004580024 0.029595817
000050 27 6f a3 3d 46 38 09 3d d6 a6 06 3d b3 af 6e 3c
       0.07980185 0.033500932 0.03287395 0.014568257
000060 a7 ed c4 3d b0 02 d3 bc a4 d2 67 3d 19 72 ff 3c
       0.09615641 -0.025758117 0.056597367 0.031182336
000070 cc e2 bd 3d c5 e4 f7 3c dc c2 b9 3c 9b 29 69 3d
       0.09271774 0.030260453 0.022675924 0.056924444
000080 d1 5c 5b bb 23 f7 4a 3d 78 01 9c 3c f6 fc 0f 3d
       -0.003347207 0.049552094 0.01904367 0.03515335
000090 00 87 8f bb b2 13 88 bc d3 ff 28 3d 08 f7 32 3d
       -0.004380107 -0.016610954 0.041259598 0.04369262
0000a0 78 24 d7 3c 31 93 9d 3c 91 f4 bd 3c 44 16 81 3d
       0.026262507 0.019235225 0.023187907 0.06303075
0000b0 61 d0 b1 3b 22 65 5e 3a b5 46 4f bc e7 78 46 3c
       0.005426452 0.0008483698 -0.012651135 0.012113786
0000c0 db a8 28 3c 09 21 e2 3c 4d 07 f4 3c 70 2a a8 3d
       0.0102941645 0.027603643 0.029788638 0.08211219
0000d0 7e 91 af 3c fa d4 4d ba 06 77 29 3d d8 13 7a 3d
       0.02143168 -0.00078518654 0.041373275 0.06105408
0000e0 fe c0 aa 3c 1c 0e ed bc d4 9a 9c bc c5 bd 72 3d
       0.020843979 -0.028937392 -0.019116797 0.05926301
0000f0 b2 f9 ef bc bb a9 a7 3c 55 f1 bb 3d ac 89 dc 3c
       -0.029293869 0.020466676 0.0917689 0.026921116
000100 4a 4c 67 3d 38 8a 0c 3d ac c3 83 3c 5d 71 c9 3d
       0.05646924 0.034311503 0.016084515 0.098360755
000110 b5 04 ad 3d 8e 9d b9 bc b9 1d ab 3d a2 4c 89 3d
       0.084481634 -0.022658136 0.083552785 0.0670407
000120 ee 25 d0 3c f7 b3 f0 bb 69 f7 72 3d 67 62 b3 3d
       0.025408711 -0.007345672 0.05931798 0.08759003
000130 db de 70 3d e8 34 c9 3b 17 8c a8 3c 45 db db 3c
       0.05880628 0.00614034 0.020574613 0.026837954
000140 02 97 54 bd 71 06 19 bd 91 f5 26 bd b5 72 93 bc
       -0.051901825 -0.03735966 -0.040761534 -0.017999033
000150 81 ba 54 bd 98 8a a3 bd 23 4c 8f bd 64 c3 e2 bc
       -0.051935676 -0.07985419 -0.06996944 -0.02768106
000160 ed 32 d3 bc 32 c5 ec bc 5c 21 74 bd 5d a3 8b bd
       -0.02578112 -0.028902624 -0.059602126 -0.068182684
000170 50 a9 5a bd 24 c8 96 bd 5e a1 87 bd 07 ec 99 bd
       -0.053384125 -0.073623925 -0.06622575 -0.07515722
000180 b7 30 25 3c e7 22 52 3c ae e7 72 3d 99 6a 72 3c
       0.010082415 0.012825704 0.05930298 0.014795923
000190 85 1f a9 3d b8 0a 5d 3d 73 16 87 3d 94 8a db 3d
       0.08257965 0.0539653 0.06596079 0.10719791
0001a0 b7 90 52 3d fb 58 80 3c aa 9b a0 3b 9d c3 27 3d
       0.051407542 0.01566743 0.004901369 0.040958036
0001b0 e5 67 0f bd e6 11 8b 3d f9 0f 84 bc e6 c4 82 3d
       -0.03501119 0.06790523 -0.016120898 0.06385212
0001c0 00 8f 93 3c e4 06 1f 3c 6e f7 15 bd f4 e3 69 bd
       0.018012524 0.009706233 -0.03661292 -0.05710216
0001d0 f1 e6 1f 3c 66 ef b1 3b 93 7b 56 bd fd af 05 bb
       0.009759651 0.00543015 -0.052363943 -0.0020399087
0001e0 78 42 e4 bc e6 e2 61 bd 03 89 b7 bc 0d b9 23 bc
       -0.027863726 -0.055148028 -0.0224042 -0.00999285
0001f0 f2 9f b9 3c d1 2f 25 bd 35 c2 14 bd fd d8 46 bd
       0.022659276 -0.040328804 -0.036318023 -0.04854678
000200 70 74 16 bd 11 b8 32 bd 62 86 5e bd 5d 32 b7 bd
       -0.036732137 -0.04363257 -0.054327376 -0.08945153
000210 8d bd 99 bd 40 ee 8a bd 21 a5 a1 bd 86 34 c4 bd
       -0.07506857 -0.06783724 -0.07892824 -0.095803306
000220 af 82 b3 bd 3c 6e 9e bc 9a 24 bc bc 41 1c 9c bd
       -0.0876516 -0.019339673 -0.022966672 -0.076225765
000230 69 d7 df bd af 6a a4 bd 12 aa b0 bd d1 7b 4f bd
       -0.10929758 -0.08028161 -0.08626188 -0.05065519
000240 8a f0 d2 39 98 59 4c 3d 32 2c 8e 3c a9 f3 a2 3a
       0.00040233537 0.04989013 0.017355058 0.0012432236
000250 97 75 92 3d bd 0d ba 3d 08 51 ee 3c 2a aa bc 3d
       0.07151335 0.090846516 0.029091373 0.09212144
000260 c1 d5 70 3d 04 ec ab 3d 81 7b ea 3c 92 c1 92 3d
       0.0587976 0.08394626 0.028623344 0.07165827
000270 62 07 91 3d 77 20 10 3d 32 2d 9f 3d bd b6 82 3d
       0.07081486 0.03518721 0.07772292 0.06382511
000280 7b 3d 2f 3d 2c 2d 11 bc 6b 45 d3 3c a7 2d cf 3d
       0.04278324 -0.0088608675 0.025789937 0.10116129
000290 4a 49 1f 3d 01 51 ad 3c e9 34 89 3c 13 2d 2a 3d
       0.038888253 0.02115679 0.016748862 0.041546892
0002a0 50 41 a3 3d 7e 1f eb bc e7 7c 84 3c fa 08 1f 3d
       0.07971442 -0.02870154 0.01617284 0.03882692
0002b0 03 fa bc 3d af 02 0e bb e1 a4 21 3d 4f 25 93 3c
       0.092273735 -0.002166908 0.03946388 0.017962126
0002c0 55 df 10 3d 30 b5 6f bc 8f 46 4b bc 9a 31 18 bc
       0.035369236 -0.014630601 -0.012406959 -0.00928917
0002d0 0e 93 a8 3c b2 4e b6 bc 07 ea 92 bc 39 31 0c 3c
       0.020577934 -0.022254322 -0.017933859 0.0085566575
0002e0 34 de 2a 3d 44 24 d2 3a d3 c5 15 3d b5 15 1b bc
       0.041715816 0.0016032537 0.036565613 -0.009465625
0002f0 8b 4e ac 3c ce e4 84 3d d2 c0 f2 3b 85 75 19 3d
       0.021033546 0.064889535 0.00740824 0.03746559
000300 15 c1 88 3b 35 cb 51 bd db 38 64 bd 86 d5 51 3c
       0.004173408 -0.051219184 -0.055718284 0.012807256
000310 6e d0 84 3d 52 9b ee bb be e2 70 3d 5b 50 50 3d
       0.06485067 -0.007281699 0.05880999 0.050857883
000320 31 c8 1a 3d c1 5d 17 bd 86 02 66 bd 77 ba 17 3d
       0.037788574 -0.036954645 -0.05615475 0.03704306
000330 de d8 85 3d 23 51 ef 3b 53 4f 11 3b 06 61 42 3d
       0.06535505 0.0073033734 0.0022172525 0.04745581
000340 20 ff 38 3d 7b 74 d7 3c da cb 96 3d c6 ba c2 3c
       0.04516518 0.02630066 0.073631 0.023770701
000350 e7 9f ec bb 8e d3 38 bb 0b 41 b4 3c 9d 1b 1f bc
       -0.0072212103 -0.0028202268 0.022003671 -0.009711173
000360 1c e1 c8 3a ee 6c ef 3c c6 0d 89 3d 4d 1f e8 3c
       0.0015325877 0.029226746 0.0669208 0.028335238
000370 85 2d ae 3c 61 48 6c 3b de e8 38 3d 8f 35 a2 3c
       0.02126194 0.0036053883 0.045143954 0.01980093
000380 fe d6 3f 3d f3 1f 0b 3d 1d 82 b6 3d 2b 3d 22 3d
       0.046835892 0.033966016 0.08911536 0.039609116
000390 db f4 86 3d 4d 84 5b 3d 7e 50 4b 3c f1 6b 9b 3d
       0.06589671 0.05359297 0.012409328 0.075889476
0003a0 93 8e 65 3d ea c8 3b 3d fc 39 27 3d de a5 21 3d
       0.056044172 0.045845903 0.040826783 0.039464824
0003b0 51 84 7d 3d 7b 6a 81 3d fd 9a 1f 3d c0 79 3f 3d
       0.061893765 0.06319138 0.038966168 0.04674697
0003c0 b9 40 84 bd b4 64 8c bd 1c 67 c7 bd 59 0a fd bd
       -0.06457657 -0.06855145 -0.097364634 -0.12355489
0003d0 cd b6 09 be c6 3c 24 be 96 90 06 be 09 39 59 bd
       -0.13448639 -0.16038808 -0.13141093 -0.05303291
0003e0 90 a5 77 bd 88 03 f6 bd 16 69 ed bd 4a 92 26 bd
       -0.060460627 -0.12012392 -0.11592309 -0.040666856
0003f0 8d 38 0d be 9c b2 03 be 90 66 eb bc 26 cc 57 bd
       -0.13791104 -0.12861103 -0.028735429 -0.052684925

layer2.0.bias f4 [64]
000000 78 d3 90 bc da 5e 13 3d 0e 9d c7 bd c2 f7 e4 3b
       -0.017678961 0.03597913 -0.09746753 0.006987543
000010 af 7d 3a bc 5a cc f8 bc 6b 9a 49 bc 02 50 98 3b
       -0.011382504 -0.03037088 -0.0123048825 0.0046482095
000020 99 8e 5d 3c 8a cc 05 3c d4 65 f9 bc 90 b0 0b bc
       0.013522767 0.008166442 -0.030444063 -0.0085259825
000030 91 8b 03 3d 26 de 16 3d 45 88 96 3c d0 6b 6c bc
       0.032115523 0.03683295 0.018375525 -0.014430001
000040 1e 56 b3 bd 46 6f f6 bc ab 5e e6 bd cd ba 57 3c
       -0.0875666 -0.030082356 -0.11248525 0.013167095
000050 4c ba 5f bd d4 a0 51 3d fe 8f 11 bc 20 43 ac 3d
       -0.054621026 0.05117877 -0.008884428 0.084112406
000060 b6 31 09 bd 6b 32 84 bd 76 25 0d 3d 3a d5 47 bc
       -0.033494674 -0.06454929 0.034459554 -0.012196833
000070 70 03 b3 bd e3 db fd bc cf 7c 55 3d 3a d0 8c bd
       -0.0874089 -0.03098864 0.05212098 -0.068756536
000080 c4 bd b0 bc 57 2d 8a bc 7f 25 25 3d 70 2d c5 bc
       -0.021574862 -0.016867323 0.040318962 -0.024069518
000090 55 89 22 bd 65 bc dc bd 5e b0 43 bd af 63 e1 bb
       -0.03968175 -0.10778121 -0.04777562 -0.0068783383
0000a0 79 c0 a4 3d 0a 8a a8 3c b2 c6 1a 3d 80 f1 f3 3b
       0.08044524 0.020573635 0.037787147 0.0074445605
0000b0 5e 2c cf bc bc de aa bd 45 2a 95 3d 27 d3 c7 bd
       -0.02528971 -0.083432645 0.07283453 -0.09757071
0000c0 04 ee 0d 3d b9 e6 03 bd 43 38 58 bd d5 b7 98 bd
       0.034650818 -0.032202456 -0.05278803 -0.07456938
0000d0 c4 01 9e 38 bf 27 6d bb ab 47 ce bd 2c b7 9b bd
       7.534356e-05 -0.003618702 -0.10072263 -0.07603297
0000e0 4d 88 f7 3c 45 bb 93 ba 95 79 89 bd 12 6d aa bd
       0.03021636 -0.0011271021 -0.06712643 -0.08321585
0000f0 93 61 79 bd 9c d9 98 3d e2 30 3c bd a2 53 87 bd
       -0.06088407 0.07463381 -0.045945056 -0.066077486

layer2.1.weight f4 [64]
000000 dd 5a 6d 3f e7 2a 7d 3f fe 8f 73 3f aa 94 83 3f
       0.9271677 0.9889359 0.9514159 1.0279744
000010 2c 6b 83 3f c8 f9 79 3f cc 3f 7d 3f 01 cf 69 3f
       1.0267081 0.9764676 0.9892547 0.9133149
000020 9f 29 65 3f e2 53 70 3f 98 fa 7b 3f d4 06 7e 3f
       0.89516634 0.93877995 0.9842925 0.9922917
000030 f1 cf 74 3f 00 f6 84 3f e4 d2 68 3f 84 c2 64 3f
       0.95629793 1.0387573 0.90946794 0.8935931
000040 77 c2 6f 3f c6 13 85 3f d5 6f 6e 3f 03 b5 72 3f
       0.93656105 1.0396659 0.9313939 0.9480745
000050 55 bb 8a 3f df d9 7f 3f 0d 4e 74 3f 16 ae 7d 3f
       1.0838419 0.9994182 0.95431596 0.9909376
000060 18 4f 7a 3f 64 1d 8b 3f 27 25 78 3f 2a 32 68 3f
       0.9777694 1.0868344 0.9693169 0.90701544
000070 36 c4 7e 3f b7 fe 6f 3f c2 7d 86 3f 6e a5 73 3f
       0.99518144 0.9374804 1.0507128 0.951743
000080 c3 cd 83 3f 1a d6 65 3f f3 18 61 3f 09 69 80 3f
       1.0297168 0.8977982 0.87928694 1.0032054
000090 57 4d 74 3f 3e 4c 62 3f 3d 3e 71 3f af 6d 5d 3f
       0.9543051 0.88397586 0.94235593 0.8649549
0000a0 09 cb 73 3f b5 b0 82 3f 6a 03 80 3f 66 2a 80 3f
       0.9523168 1.0210177 1.0001042 1.0012939
0000b0 fd 07 8e 3f 05 3f 62 3f 24 85 77 3f fe a0 7a 3f
       1.1096188 0.8837741 0.9668753 0.97901905
0000c0 10 6b 72 3f 31 b4 5b 3f ed 66 75 3f ad 59 7d 3f
       0.94694614 0.85821825 0.9586018 0.9896496
0000d0 08 e4 67 3f 8e 35 77 3f a9 26 80 3f 14 89 80 3f
       0.90582323 0.9656609 1.0011798 1.0041833
0000e0 5b 7e 72 3f 5f 75 6f 3f eb b3 8e 3f ae a3 79 3f
       0.94724053 0.9353847 1.1148657 0.9751538
0000f0 d7 2a 6e 3f 6c 70 68 3f 9a 47 68 3f 5c a7 82 3f
       0.9303412 0.9079654 0.90734255 1.0207324

layer2.1.bias f4 [64]
000000 9f c5 fd bd 77 5a d0 bd 93 1f 98 bd eb 21 3b 3d
       -0.12391209 -0.10173505 -0.07427897 0.045686644
000010 f1 9d 85 be 9c 7a 84 3d 82 01 42 bd 63 31 c5 bd
       -0.26097062 0.064686984 -0.04736472 -0.096285604
000020 34 e8 0f be 72 fe 9c bd f4 6f 57 be 69 ac 17 bd
       -0.14053422 -0.07665719 -0.210388 -0.037029658
000030 17 d9 0d be 0a f3 3f 3d a4 40 f9 bd de 49 17 be
       -0.13852344 0.04686264 -0.12170532 -0.14774272
000040 ba 01 07 be 58 8c 7b be dc be 52 be 46 e8 e7 bd
       -0.13184252 -0.24565256 -0.2058062 -0.113235995
000050 bf 04 40 be 38 72 df bd 76 12 0a be 49 d5 4c bd
       -0.1875181 -0.109104574 -0.13483605 -0.050008092
000060 4d ca 25 bd 7f 85 64 be d5 7d 52 3d df 9b 06 be
       -0.040476132 -0.2231655 0.051389534 -0.13145398
000070 ec 49 e4 bc f6 72 b3 be bd 12 0d be fb c1 7b bd
       -0.02786728 -0.35048646 -0.1377668 -0.06146429
000080 40 d0 5e be 80 d4 d6 bd 64 0f 12 be 3c 24 82 be
       -0.21759129 -0.1048975 -0.14263684 -0.2541827
000090 7c 6a bd bd ea d3 1c be cf e1 1d be aa 7e 9f bd
       -0.09248826 -0.15315214 -0.1541817 -0.07787831
0000a0 5a f0 10 bd 51 e0 32 be fe 80 49 be ee 6a 8b be
       -0.035385467 -0.17468382 -0.19678113 -0.27230018
0000b0 02 ed 80 be f4 1e 02 be e3 79 0d 3d 71 76 84 bd
       -0.25180823 -0.1270712 0.03454007 -0.064679034
0000c0 0f f0 1a be 7c 16 19 be 43 a3 a3 bd 1e ba 34 be
       -0.15130638 -0.14949983 -0.07990124 -0.17649123
0000d0 47 3e 94 3c bb 77 43 be 8c 42 28 be 84 5e 7c be
       0.018096102 -0.19088642 -0.16431636 -0.2464543
0000e0 79 20 c3 bd 53 c3 d6 bd 4a c8 99 be 1f 16 4d be
       -0.09527678 -0.10486474 -0.3003562 -0.2002797
0000f0 51 05 4b be e1 47 f8 bd f1 e1 20 be f0 2e 88 bd
       -0.19826247 -0.12123085 -0.1571119 -0.066495776

layer2.1.running_mean f4 [64]
000000 ab 82 27 3f 95 a2 e5 be bd 7d 44 bf 42 2f 4c 3f
       0.6543376 -0.44850603 -0.7675436 0.7975961
000010 f7 bd 4e be 7d 5e e1 bf 60 1f 98 bd e1 45 04 be
       -0.20189653 -1.760696 -0.07427859 -0.12917282
000020 cd f0 40 bf bc cf 85 3d 03 67 08 bf 19 3a 0e 3f
       -0.7536743 0.06533763 -0.53282183 0.555574
000030 72 a8 c2 be 20 91 86 3e 42 e1 fc be 05 fe 39 bf
       -0.3801914 0.26282597 -0.49390608 -0.7265323
000040 13 c6 a0 bd 77 f8 ae bf 5c e3 11 bf ef fd 18 bf
       -0.0785028 -1.3669575 -0.5698755 -0.5976247
000050 17 22 92 bf cd 24 21 3f d5 e9 e1 bf 05 9a f2 3f
       -1.1416653 0.6294678 -1.7649485 1.8953253
000060 47 2e db bf b7 c3 8a bf 7e 75 d7 bf bb bb 11 bf
       -1.7123498 -1.0840977 -1.6832731 -0.5692708
000070 da 10 39 3d 1b fc 94 bf 20 98 25 bf 58 0b 44 40
       0.045182087 -1.1639436 -0.6468525 3.0631924
000080 7d b4 8e bf 37 6b 29 bf 51 4f 04 bf 91 67 81 bf
       -1.1148831 -0.6617922 -0.5168353 -1.0109731
000090 72 9a 5f bf 67 01 c2 be e7 ad f6 bf 49 39 fe be
       -0.8734504 -0.37891695 -1.9271821 -0.4965308
0000a0 50 b9 62 bf 3c 5f 00 c0 ec 9c 5c 3e 8b 3c 9a bf
       -0.88564014 -2.0058126 0.21544236 -1.2049726
0000b0 82 b8 8c bf df 96 04 bf 82 62 48 bf 80 66 56 be
       -1.0993807 -0.5179271 -0.7827531 -0.20937538
0000c0 3b f5 e9 bf 3d be f3 be 0b da 70 bf e9 82 d7 be
       -1.8277963 -0.47606078 -0.9408271 -0.42092064
0000d0 36 06 b0 bf 26 ee 41 bf e6 74 96 3f 5d cb 4a bf
       -1.3751895 -0.7575401 1.1754425 -0.7921656
0000e0 7e 82 4a bf 24 7f 1e bf 28 29 09 bf 9a d8 5a bf
       -0.79105365 -0.6191275 -0.53578424 -0.8548676
0000f0 a9 45 0e c0 f7 bd 0c 40 36 cc 51 be 70 f3 82 be
       -2.2230017 2.1990945 -0.20488057 -0.25576353

layer2.1.running_var f4 [64]
000000 ab 9d aa 40 ad c4 dd 3e 32 61 a6 3f b3 e6 94 3f
       5.3317466 0.43314114 1.2998412 1.1632904
000010 01 3c 8b 3f 85 58 4d 40 3f d2 e6 3f 9a b5 0e 3f
       1.0877687 3.2085278 1.8032912 0.5574585
000020 5e d7 3d 40 4c 01 17 40 d6 9a c3 3f fe d7 af 3f
       2.96627 2.3594542 1.5281627 1.373779
000030 8c 5b ea 3f 68 7f 9e 3f d3 10 77 40 21 15 af 3f
       1.8309188 1.2382631 3.8604019 1.3678323
000040 90 bd 12 40 d9 30 aa 40 86 be 1d 3f f5 6b e1 3f
       2.29282 5.318463 0.6161884 1.7611071
000050 00 d9 3a 40 77 30 cf 3f 3b 80 9b 40 08 af b7 3f
       2.9194946 1.6186665 4.859403 1.435029
000060 81 1a 1a 41 1a c0 72 40 e5 cb f8 3f 7e b9 ad 3f
       9.631471 3.792975 1.9437224 1.3572233
000070 28 b6 a2 3f ff db 19 40 c4 4b cc 3f 68 96 99 40
       1.271184 2.4040525 1.5960622 4.79961
000080 85 35 ad 40 5e ec 2d 3f 6c 90 cb 3f 84 13 83 40
       5.412783 0.6793879 1.5903449 4.0961323
000090 4b 64 f7 3f f0 1f 35 3f b1 1b 5d 40 97 7c 25 3f
       1.9327482 0.7075186 3.4548151 0.64643234
0000a0 dd 59 d6 3f 8d 03 16 40 72 e0 8e 3f 99 2b de 3f
       1.6746174 2.3439667 1.1162245 1.7357055
0000b0 2c c4 05 40 18 4e 8a 40 f1 3b a2 3f 34 36 f4 3e
       2.0900984 4.322033 1.2674543 0.47697604
0000c0 21 d8 93 40 ae a4 46 3f 28 22 5e 40 84 5b 03 40
       4.620133 0.7759503 3.4708347 2.0524607
0000d0 23 4f ae 3f bd 30 c6 3f e3 99 69 3f 15 d7 1e 40
       1.3617901 1.5483624 0.9125044 2.4818776
0000e0 de 91 08 40 cf 80 5b 40 5e 43 d6 3f d8 f2 ee 3f
       2.133903 3.4297369 1.6739309 1.866786
0000f0 6d a0 d6 40 be e9 1c 40 b0 23 79 40 89 95 01 40
       6.707083 2.4517665 3.8928032 2.024752

layer3.0.weight f4 [64, 32, 4, 4]
000000 6e 34 4e 3d e2 cc fb 3c b8 8c 61 bd e0 ad e5 3c
       0.05034297 0.030737344 -0.05506584 0.028037012
000010 a1 4e 32 3d 10 ac bc bb 7a 4d 22 bd 82 0d e1 3c
       0.043532018 -0.005757816 -0.03962467 0.027472261
000020 17 8e 89 bc c4 91 84 bc 53 05 71 bd 3f ac 03 3c
       -0.016791387 -0.016182788 -0.05884297 0.008036672
000030 63 8f 59 3c 38 01 6d 3c 75 28 ac bc 83 58 a2 3b
       0.013278815 0.014465623 -0.021015385 0.004954399
000040 80 f2 dc 39 2a af 96 3d d9 e3 60 3d 5d b7 02 3d
       0.00042142347 0.07357629 0.054904792 0.03191315
000050 b9 e6 43 bb f0 77 04 3c e8 1b 2e 3d cf fe 2c 3d
       -0.002989216 0.008085236 0.042507082 0.042235192
000060 aa de 51 3b 49 47 40 3b 85 76 8f 3c 35 b0 61 3d
       0.0032023587 0.0029339364 0.01751257 0.055099685
000070 e7 d2 24 3c 4b 62 50 bc cf 3e b8 3c b9 c7 4a 3d
       0.010060049 -0.012718747 0.022490887 0.049506877
000080 44 97 79 3d 9f 24 08 3d 58 1b f8 3c b1 7d 86 3c
       0.060935274 0.03323805 0.030286476 0.016417356
000090 52 44 57 3c f0 c2 ed 3c 5b 49 c8 bb ac 73 08 bc
       0.013138847 0.029023618 -0.0061122603 -0.00832836
0000a0 54 86 18 3b 93 f9 c9 bc 9c 13 61 3c 0a 46 85 3c
       0.0023273425 -0.02465514 0.013737585 0.016268749
0000b0 b6 cc 24 3d c0 c0 14 bb dc 6a e0 3a 4d a5 58 3b
       0.04023429 -0.0022697896 0.001712169 0.0033057511
0000c0 2c a6 08 3d 1e b3 24 3d ae 54 78 3d 3a ac c2 3d
       0.0333616 0.040209882 0.06062763 0.09505506
0000d0 1e 8e 57 3d bf 6c b9 3d 3a 68 96 3d 9c 1f 81 3d
       0.052625768 0.09053945 0.073440984 0.06304857
0000e0 dc 64 fa 3c ac 15 8e 3b dc 9e 35 3d 49 44 ac 3d
       0.030565672 0.0043360796 0.044340953 0.08411462
0000f0 20 9c a3 3d e6 40 9f 3d 3e aa 9d 3d 1f 60 7a 3d
       0.07988763 0.0777605 0.07698487 0.061126824
000100 02 8c 15 3d af 7c 0f 3d 78 1f 8a 3a 38 f2 73 3d
       0.036510475 0.035031017 0.0010537943 0.05955717
000110 21 c3 bc 3c 9b 3b 50 3d c3 45 8f 3d 2b 2b 3e 3d
       0.023042263 0.050838094 0.06995728 0.046427887
000120 0c 8c 9f 3c 04 6f 51 3d 35 0a 3f 3c 0c 13 b1 3d
       0.01947596 0.051131263 0.011660148 0.08646211
000130 90 e3 81 3d 0a 0f fc 3c 8e 55 67 3d 05 e4 93 3d
       0.06342232 0.03076889 0.056478076 0.07221226
000140 69 ed 7c 3d 76 04 17 3c 34 e3 15 3d f2 e3 4a 3d
       0.06174985 0.009217372 0.03659363 0.04953379
000150 83 36 f2 3c 3e 86 c5 b9 a3 0e cf ba 8b 11 3d 3d
       0.029567009 -0.00037674786 -0.0015797209 0.04615931
000160 59 e5 5c 3c 0a 67 94 3c 21 9b 46 3d ed 5d b9 3b
       0.013482415 0.01811554 0.048487786 0.005656949
000170 be 4d 29 3d 2f fb 94 3c 7b 60 92 3c e1 05 a5 bb
       0.041333906 0.01818618 0.017868271 -0.005036101
000180 6d b4 1f 3d aa 5a ad 3c e9 4e 94 3d 04 c0 fa 3c
       0.038990427 0.021161396 0.072416134 0.030609138
000190 03 d9 6e 3c 89 f9 a5 b9 60 0f 30 3c e6 de 11 3d
       0.014578107 -0.0003165717 0.010745853 0.035612963
0001a0 63 da 08 3d d5 ce da 3c 08 73 33 3d 75 91 69 3c
       0.033411395 0.026709953 0.043810874 0.014255871
0001b0 ad dc db 3b 6b 64 ad 3c f5 f3 c5 bb 6c f1 9e 3c
       0.006709656 0.021166047 -0.006041045 0.019402228
0001c0 ab ac 6f ba 3f e8 fa 3c 01 c6 98 3c ae 66 af 3d
       -0.0009142856 0.030628322 0.018649103 0.085645065
0001d0 1d 11 15 3d 55 1e 01 bd 26 4b 29 3d 67 c8 c1 3b
       0.036393274 -0.031523068 0.041331433 0.0059137824
0001e0 bf f6 58 bc e0 c8 27 3c 4f 85 92 3c 24 f4 0e bc
       -0.013242423 0.010240763 0.017885832 -0.0087252
0001f0 0f ee b7 ba 22 9b 31 3d 40 0d b8 3c b9 dc ba 3c
       -0.0014032739 0.043360837 0.022467256 0.022810327
000200 19 67 9b 3d 26 20 9d 3d f0 58 92 3d 3d 82 49 3d
       0.07588024 0.076721475 0.0714587 0.04919647
000210 41 1c 0c 3d 7e ba 54 3c fa 1a 74 3c 57 a6 84 3c
       0.034206633 0.012983916 0.01489901 0.016192598
000220 56 80 1d 3c 08 ed 27 3d a8 d0 0d bc 68 4f 40 3d
       0.009613117 0.040997535 -0.008655705 0.046950728
000230 00 7e d5 bc 46 53 ac bc f6 dd 0d 3d 4c 04 1f 3d
       -0.026061058 -0.021035802 0.034635507 0.038822457
000240 07 cb 79 3d f7 4c 56 bc 09 3c 54 bb c3 c9 3a 3d
       0.060984638 -0.013079873 -0.0032384417 0.04560257
000250 1d bf 24 3d eb a4 15 3d fb 43 78 3c 1a fe 29 3d
       0.040221322 0.03653423 0.015152927 0.041502096
000260 5c cc 08 3c 88 8a b8 3c c6 75 41 3d 6f 09 92 3a
       0.008349504 0.022526994 0.047231458 0.0011141727
000270 8a c4 a5 3c 6a ab 1d 3d 6d 6f db 3c bd 3a 86 3c
       0.020235319 0.03849355 0.02678653 0.01638543
000280 38 6b 4e 3d f2 5b 0f 3d 72 69 41 bc 25 6e 68 3d
       0.05039522 0.034999795 -0.011804925 0.056745667
000290 e6 68 26 bc 87 9c 4d 3d 75 08 71 3c 0e 57 d0 3c
       -0.010156846 0.050198104 0.014711489 0.025432136
0002a0 8d 52 a5 3c 45 25 94 3c c0 5e 1c 3b c8 34 a1 bc
       0.020180965 0.018084178 0.0023860186 -0.019678488
0002b0 82 51 a6 bb 61 0e 1e bd 00 3f 43 3a a4 be 51 3c
       -0.0050756345 -0.03858793 0.00074480474 0.0128018
0002c0 ec 79 76 3d a1 42 8f 3c 64 a6 b4 3d 6f 74 37 3d
       0.060174868 0.017487826 0.08820799 0.044788774
0002d0 45 24 57 ba 6b a3 fa bc 3f 40 b9 3c 5b 4e fc 3c
       -0.00082070037 -0.030595502 0.022613643 0.030799082
0002e0 fb 61 1b 3d ad 72 1b 3c 55 6a 80 bb df cd 7b 3d
       0.03793524 0.00948779 -0.0039189258 0.06147563
0002f0 1d 21 9f 3c 31 5d 1d 3d ad d6 01 3c 35 2b 90 3c
       0.01942497 0.038418952 0.007924718 0.017598728
000300 d1 9d 81 3c 14 3e 53 3d 84 7c 6f 3d b9 a3 7f 3d
       0.015822323 0.051572874 0.058468357 0.062411997
000310 45 b4 a7 bc 23 d7 f1 3c e6 82 00 bd d9 fb f3 39
       -0.020471701 0.02952153 -0.031374834 0.00046536213
000320 b1 10 43 3a 4e a3 a8 3c 71 59 93 3c ac 9f dd bc
       0.0007441147 0.020585682 0.017986985 -0.027053677
000330 98 7b f2 3b 06 f6 d2 3c 48 3d 22 bd 4a b4 55 bc
       0.0073999874 0.025752079 -0.039609224 -0.013043473
000340 bf d9 ca 3c 03 e5 43 3d e2 5f 1d 3d f1 7b 8f 3c
       0.024762033 0.047825824 0.03842152 0.017515155
000350 46 68 96 3c e0 91 05 3c 16 7a ab bc de fb 14 3d
       0.018360268 0.008152455 -0.020932239 0.03637301
000360 f4 95 fd 3a 1d c2 b4 bb 62 48 d9 bb 94 b5 e7 3b
       0.0019347058 -0.005516304 -0.006630943 0.0070712063
000370 51 1c 47 3d 7b e7 36 bc 6b 52 0b 3d 7e 2a bd ba
       0.04861099 -0.011163588 0.034014147 -0.0014432219
000380 3f 61 c7 3c 11 15 27 3d 60 38 ce bb 50 9b 80 3d
       0.024338363 0.040791575 -0.0062933415 0.062796235
000390 3f 63 0d 3d 9b 6d 3b bc 13 83 3d bc b3 86 0f 3d
       0.034518477 -0.011439706 -0.011566895 0.03504057
0003a0 3f 11 72 3b c6 68 39 bd 57 7a bc bc 58 aa 2e 3d
       0.003693655 -0.045265935 -0.023007555 0.04264292
0003b0 a3 9a 23 3c 1e f0 bc bc 57 df 85 3b 82 35 d1 3c
       0.009985599 -0.023063716 0.004085462 0.02553821
0003c0 be ed 53 3d fb 0f ea 3b d1 a4 4f bb ff e9 04 3d
       0.0517404 0.0071430183 -0.0031683932 0.03244972
0003d0 91 3a 02 3d 4a d4 99 bc e8 72 30 3d 08 9f 21 bc
       0.031794135 -0.018777985 0.043078333 -0.009864576
0003e0 8a ad 4f 3c 00 18 06 3c e7 a8 71 3c f7 61 89 3c
       0.012675652 0.008184433 0.014749742 0.016770346
0003f0 29 49 48 3d e2 7e 40 3c 57 3a d8 ba 50 4e 55 3a
       0.048897896 0.011749001 -0.0016496879 0.00081369746

layer3.0.bias f4 [32]
000000 b4 32 13 3d ca 0e ff 3d 02 8b b3 bc d1 5f a2 3d
       0.035937026 0.12453993 -0.02191687 0.07928432
000010 77 40 7b bd ca 5a 03 bc 3d 82 99 3d f5 8d 9b 3d
       -0.061340775 -0.008017251 0.07495544 0.075954355
000020 45 21 2d 3d e2 a8 09 3d 72 77 45 3d 80 87 08 3d
       0.042268056 0.033608325 0.048209615 0.033332348
000030 90 c1 3a 3b 67 e4 1e 3e 26 04 39 3d d1 8e b0 bd
       0.002849672 0.15516816 0.045169972 -0.0862099
000040 74 54 f7 3b 4a 9e 00 3e 36 ea af 3d a7 a2 d5 bd
       0.0075479094 0.12560382 0.08589594 -0.10431414
000050 b8 8f e7 3d 62 ad 9d bd 45 23 57 3d ca 65 09 3e
       0.11306709 -0.07699086 0.05252387 0.13417736
000060 ee 04 c8 3d 49 e6 4e bd fd 77 ae 3d 4b 71 4c 3d
       0.09766565 -0.050512586 0.0851898 0.049912732
000070 4f e8 07 3e fe 0c bf 3d 7c f4 d7 3d cc 1c 3f 3e
       0.13272212 0.0932865 0.105446786 0.18663329

layer3.1.weight f4 [32]
000000 f4 e2 94 3f aa 65 a0 3f 10 0c 99 3f 26 8a af 3f
       1.1631761 1.2531025 1.1956806 1.3714035
000010 a7 c6 a5 3f e1 77 9d 3f b8 19 97 3f c3 c5 99 3f
       1.2951249 1.2302209 1.1804724 1.2013477
000020 56 75 99 3f 22 21 9a 3f 29 e1 9d 3f 3e 10 a4 3f
       1.1988933 1.2041361 1.2334338 1.2817457
000030 b6 66 98 3f f3 49 9c 3f ab 55 98 3f 13 eb 9b 3f
       1.1906345 1.2210068 1.1901144 1.2181114
000040 81 92 92 3f 54 32 99 3f 81 02 9a 3f 96 55 94 3f
       1.145096 1.1968484 1.2032014 1.1588619
000050 3c 40 9c 3f 26 09 ae 3f d2 21 9c 3f 77 2a a7 3f
       1.2207103 1.3596542 1.2197821 1.3059834
000060 7a 92 9b 3f 99 be 99 3f b5 01 a3 3f df d8 99 3f
       1.2154076 1.2011291 1.2734896 1.2019309
000070 ea 66 9a 3f 83 31 99 3f 45 3f 90 3f 20 7d 9f 3f
       1.2062657 1.1968235 1.1269308 1.246006

layer3.1.bias f4 [32]
000000 6f 43 07 3d c1 44 4a bd e2 22 0b bd ae 7c 95 bb
       0.033023294 -0.049381975 -0.033968814 -0.004561982
000010 59 8e a7 bc 29 62 24 3d f1 dc e8 bb 55 9b 6b 3c
       -0.020453619 0.040132675 -0.0071064164 0.014380296
000020 85 54 08 3d 83 58 20 3c e1 a0 e1 bc dc 8c 3f bd
       0.03328373 0.009786728 -0.027542533 -0.046765193
000030 3f d2 78 3d cb f4 8a 3d 80 53 ee 3c f9 03 14 3d
       0.06074738 0.06784972 0.02909255 0.0361366
000040 d7 c3 d6 3c 59 59 9c 3d c5 4b 03 bd 16 9d e5 3b
       0.02621643 0.07634229 -0.03205468 0.0070072515
000050 f4 c4 86 bc c6 91 0e bd e6 53 3b 3d 64 a7 f7 3d
       -0.016451336 -0.03480699 0.04573431 0.12092474
000060 50 fb 8d 3d dc ee 65 bc 52 3b d6 bd 00 84 de bc
       0.069327 -0.014033999 -0.10460533 -0.027162552
000070 df 76 c5 3c 7a a2 1c 3d 9d ca 38 bd 46 67 6a bb
       0.024104534 0.038240887 -0.045115102 -0.0035767122

layer3.1.running_mean f4 [32]
000000 65 1b c7 be 99 6a f5 be 2b 6a 67 3d fb be 8c be
       -0.38888088 -0.4793289 0.056497734 -0.27489457
000010 0a 30 38 bf 88 54 bb be 14 9b 94 be 22 1b 7a be
       -0.719483 -0.3658793 -0.29024565 -0.24424413
000020 e3 bf 9b be 91 16 bc be 47 ac c9 bd 91 71 30 bf
       -0.30419835 -0.36735967 -0.098473124 -0.6892329
000030 6a f7 d4 bd 7d cd 10 be 88 59 cb bd dd b7 0e bf
       -0.10398753 -0.14140888 -0.09929186 -0.55749303
000040 c8 4e 0f bf a0 b5 b3 be 8f 49 38 be 62 fe f4 be
       -0.55979586 -0.35099506 -0.1799681 -0.4785033
000050 ea a9 5a be 3d ae 3f bf fa 0f 1f be 1d 0d 83 be
       -0.2135388 -0.7487524 -0.15533438 -0.25595942
000060 91 4f 4f be 63 14 7f be c4 5f dc be 9c 04 99 bd
       -0.20245196 -0.2491012 -0.43041813 -0.07471582
000070 b6 b4 ca bc 19 12 f2 be ce b8 ce be 24 39 4f 3d
       -0.024744373 -0.47279432 -0.4037537 0.050591603

layer3.1.running_var f4 [32]
000000 5c 34 47 3e 5a a3 06 3e f0 54 bd 3d 71 0a 43 3e
       0.19453567 0.13148251 0.09244716 0.19046952
000010 f4 c6 36 3e 22 97 e8 3d 28 a7 1b 3e f7 4f 43 3e
       0.17849332 0.11356951 0.15200484 0.19073473
000020 10 96 fc 3d e7 85 39 3e 45 3f b9 3d b3 2a 1b 3e
       0.1233331 0.18117486 0.09045271 0.15153007
000030 d3 d8 c3 3d e2 16 03 3e 02 f5 c1 3d 00 6e 33 3e
       0.0956284 0.12801698 0.0947056 0.1752243
000040 60 75 7c 3e 50 37 e1 3d 26 25 00 3e fb f8 08 3e
       0.2465415 0.10996878 0.12514171 0.13376229
000050 ea 7b dd 3d bd cd 2b 3e 9e 54 03 3e 56 21 0c 3e
       0.1081465 0.16777702 0.12825248 0.13684592
000060 5b 80 e4 3d be 5c d7 3d 3e 56 f9 3d 2c 75 df 3d
       0.11157294 0.10515736 0.121746525 0.10911021
000070 91 3a 2d 3e 18 42 6a 3e e9 5d 21 3e d7 83 b8 3d
       0.16916873 0.22876775 0.1575848 0.090095215

layer4.0.weight f4 [32, 2, 4, 4]
000000 fd 60 e5 bd e7 d5 23 3d c8 24 2e 3e e0 79 2e 3e
       -0.1120014 0.039998915 0.17006218 0.17038679
000010 4e a7 f1 3c dc 89 05 bd 7d 5b 91 3e d3 78 f2 3c
       0.029498722 -0.032602176 0.28390113 0.02959863
000020 10 ae 99 bd b9 85 1e bc fd a2 5e 3e 24 45 3d 3e
       -0.07503903 -0.009675437 0.21741863 0.18483406
000030 1d 2a a1 bd 94 d8 2c 3d ef 39 f5 3d 52 33 1d 3e
       -0.078693606 0.042198732 0.119739406 0.15351608
000040 84 27 bb 3d 70 0a 29 3a a0 87 e4 3d ce 27 cb 3d
       0.091383964 0.00064483937 0.11158681 0.099197015
000050 f0 ca ab 3d e1 5a d7 3c d5 c6 59 3e 59 fa c4 3d
       0.08388317 0.026288452 0.21267255 0.096180625
000060 51 40 4a 3e 11 62 2c 3d 88 80 a5 3e 89 ee e2 bc
       0.19751097 0.04208571 0.32324624 -0.027701633
000070 dd 57 6b 3e 2a 34 fa 3d 27 69 a0 3e df 47 86 3d
       0.22982736 0.12216981 0.31330225 0.06556677
000080 b0 f3 a2 be be 42 81 be dc a6 03 be ad 82 ac be
       -0.31826544 -0.25246233 -0.1285662 -0.33693448
000090 ab e6 05 be f9 41 96 be ee 9e ce bd 97 b4 16 be
       -0.13076274 -0.29347208 -0.10088907 -0.14717327
0000a0 35 db 33 be a9 59 36 be 3e ac 50 be 8d 59 54 be
       -0.1756409 -0.1780764 -0.20378205 -0.20737286
0000b0 d5 82 4e be a5 13 d0 bd 02 ba 31 be 31 9c 44 be
       -0.20167096 -0.10159997 -0.17356113 -0.19200207
0000c0 31 f1 93 3e e0 87 a3 3e 9e 56 92 3e b3 6b 89 3e
       0.28894952 0.31939602 0.2858171 0.2683998
0000d0 08 73 9d 3e a0 9b 39 3e 5d 71 b5 3e 1a 36 0a 3e
       0.30751824 0.18125772 0.35438052 0.134972
0000e0 87 7a 6e 3c ac cc bd 3c 32 8d 2f 3e 47 29 5f 3e
       0.01455558 0.023168884 0.17143705 0.2179309
0000f0 b8 00 b3 3b ae 30 86 bd dd f3 13 3e 1d b3 74 3e
       0.005462732 -0.06552254 0.14448495 0.23896451
000100 6c 38 63 3e ab 1c 81 3e 6c 19 44 3e 08 da d5 3d
       0.22189492 0.25217184 0.19150323 0.10441977
000110 02 ec 45 3e 7f 94 67 3e 57 10 8c 3e 97 55 c0 3d
       0.19328311 0.2261524 0.27356216 0.09391325
000120 cf a7 7a 3e b4 7a b6 3d fb a1 6c 3e ea 35 ab 3e
       0.24478076 0.089101225 0.23108666 0.3343957
000130 35 27 07 3e cb 5a be 3d de 4b 83 3e 41 c7 40 3e
       0.1319855 0.09294661 0.2564382 0.1882601
000140 82 60 2b 3e 19 78 9f 3e 8f b6 a3 3e 6b 41 40 3e
       0.16736034 0.31146315 0.3197522 0.18774955
000150 c2 7c a9 3d b6 aa 68 3e 9a a7 5a 3d df d4 6f 3e
       0.08275749 0.22721371 0.053382494 0.23421048
000160 f3 7e 17 3d 49 d0 01 3e 07 50 08 3e 8d b7 13 3e
       0.036986303 0.1267711 0.13311778 0.14425488
000170 ad a1 10 3e 96 07 ce 3d f2 45 a3 3d 4e 5f 9f 3d
       0.14124174 0.10060041 0.079723254 0.0778185
000180 80 9e 15 bf 71 e2 09 bf 40 19 09 bf e3 9f 0b bf
       -0.58444977 -0.5386115 -0.53554153 -0.5454084
000190 10 ea 31 bf d4 c7 09 bf a6 a1 1c bf bb 3a ff be
       -0.69497776 -0.5382054 -0.61184156 -0.49849495
0001a0 b6 04 1c bf d7 6a 27 bf 63 53 1c bf 1f b7 0e bf
       -0.6094469 -0.653974 -0.6106474 -0.5574817
0001b0 f5 99 21 bf 10 72 0a bf e5 d1 1b bf e2 83 e2 be
       -0.63125545 -0.54080296 -0.6086715 -0.44241244
0001c0 50 2d 2d 3e 69 fd 67 3b 9b 45 f3 3c 8f ad 8e 3d
       0.16911817 0.0035398847 0.029696276 0.069666974
0001d0 97 6c 83 3d 11 7a 00 3e 4b bb 58 3e c7 a6 43 3e
       0.06417196 0.12546565 0.21165197 0.1910659
0001e0 49 1d cd bc 9e 12 81 3d 50 16 96 3c 6f f9 e0 3c
       -0.025038378 0.06302379 0.018321186 0.02746269
0001f0 ae cb e5 3d ac f8 07 3e db fa 04 3e af 87 72 3d
       0.112204894 0.13278455 0.12986319 0.05921143
000200 82 6b a6 be f4 98 4c be 2c 72 cd be 01 c9 d8 be
       -0.32503897 -0.19980222 -0.4012617 -0.42340854
000210 4d 80 92 be 61 7a be be 27 1b 9e be 61 6e de be
       -0.2861351 -0.37202743 -0.3088009 -0.43443587
000220 41 47 99 be 8f d8 2c be 77 41 76 be 8d 55 9c be
       -0.29937175 -0.16879486 -0.2404841 -0.3053402
000230 a6 ed 98 be 50 9e b7 be 7f c3 85 be d8 8b d9 be
       -0.2986881 -0.3586297 -0.26125714 -0.42489505
000240 c6 d4 de bc 10 19 84 3d 60 f3 78 3e 9d 9e 3e 3d
       -0.027201068 0.06450093 0.2431159 0.046537984
000250 b0 f4 95 3d 91 da a5 3d 35 74 81 3e 5c 0b 37 bc
       0.07322061 0.08098329 0.2528397 -0.011172142
000260 78 46 6e 3e a7 0e 25 3e 3d 34 a4 3e 5e 92 8a 3e
       0.23269069 0.1611887 0.32071105 0.27064794
000270 d4 26 71 3e 37 73 fe 3d 22 26 90 3e 30 44 03 3e
       0.23549968 0.12424319 0.28154093 0.1281898
000280 4d d1 9f bd 55 8f cf bd 9a f3 be bd d7 d4 13 be
       -0.07803593 -0.1013476 -0.09323807 -0.1443666
000290 0f ac a0 3d 0e 24 8c bd 3c 68 0d 3c 53 5a c3 3c
       0.078453176 -0.068428144 0.008630808 0.02384678
0002a0 d5 7f b6 3c 0c 37 f0 bd 96 02 00 be 58 ab 33 be
       0.022277752 -0.11729249 -0.12500986 -0.17545831
0002b0 32 43 a6 bd 1f db 08 be 6b f2 6a be 1f f5 7f 3d
       -0.08118285 -0.13364838 -0.22944038 0.062489625
0002c0 c8 08 fb 3c 5d 52 c9 3d 24 a3 48 3e 00 9c 24 3e
       0.030643836 0.09830163 0.19593483 0.16075134
0002d0 18 06 09 3e 0a 0f 8b 3e 2e a1 c2 3e d7 33 1d 3e
       0.13381231 0.2715991 0.38013595 0.15351807
0002e0 ba e8 14 3e a3 bc 78 3e 20 a7 96 3e 2b c4 42 3e
       0.14541903 0.24290709 0.2942438 0.19020145
0002f0 8c 33 58 3d 21 5b ef 3d ba 44 5c 3e 7f 81 35 3d
       0.052783534 0.11687303 0.21510592 0.04431295
000300 2b 1d 36 bd ff ba aa 3d fb 12 ae 3c 20 4e 37 be
       -0.04446141 0.08336448 0.021249285 -0.17900896
000310 62 45 3b 3d eb b4 a6 bc 2a 51 07 3e de 9d e2 3c
       0.045720465 -0.02034994 0.13214555 0.027663168
000320 91 cc bb 3d 49 61 d2 3c 45 3f e9 bc 4d e7 94 bd
       0.09169877 0.025681155 -0.028472552 -0.072706796
000330 3c 61 b5 bc cb 17 20 3e 82 db 1a bd fa 08 29 3d
       -0.022141092 0.15634076 -0.037806995 0.041268326
000340 2c 74 01 3e a6 9f 96 3e 6a 0a 98 3d 9e 45 aa 3d
       0.12641972 0.29418677 0.07423861 0.0831406
000350 48 cd a2 3e 0c 6b 89 3e 2e b0 b0 3d b2 78 86 3e
       0.31797242 0.26839483 0.086273536 0.26263958
000360 c6 93 49 3e 5d dc 2a 3e 8e b4 87 3e b5 5e fc 3d
       0.19685277 0.16685624 0.2650494 0.123227514
000370 f5 d8 48 3e d2 1f 3a 3e bd 15 3b 3e 14 12 94 3e
       0.19614013 0.18176201 0.18270011 0.28920043
000380 bf 32 0f 3e a4 56 48 3e f4 78 78 bc e6 2a 69 3b
       0.13984202 0.19564301 -0.015165556 0.0035578548
000390 3c bb a6 3d 42 35 0a 3e 82 bb 1e 3e f7 9a 61 3e
       0.08141181 0.13496879 0.15501216 0.2203177
0003a0 84 b8 88 bd 3b e9 39 bd 27 ce c9 b9 6d b1 39 3e
       -0.066758186 -0.04538844 -0.00038491303 0.18134089
0003b0 59 17 93 bc 7c 6b a3 3d a1 60 91 3d a6 94 8f 3d
       -0.017955469 0.079794854 0.070985086 0.07010774
0003c0 0b b4 8b 3e ca 8b ac 3e 5a bd 90 3d 32 99 09 3e
       0.272858 0.337004 0.07067366 0.13437346
0003d0 0b 2f 87 3e 7c ef e8 3d 07 9b 85 3e 50 d4 fd 3d
       0.26403078 0.11373803 0.2609484 0.12394011
0003e0 e8 23 68 3e e7 40 60 3d 47 d3 bc 3d 3e 15 32 3e
       0.22669947 0.054749396 0.092199855 0.17390916
0003f0 f4 5b b5 3d 87 5a ef 3d 93 be 0b 3d bb 2e 69 3e
       0.08855429 0.116871886 0.034117293 0.22771733

layer4.0.bias f4 [2]
000000 8b 28 85 3d 89 a9 a4 be
       0.065018736 -0.32160595
