Models/colorization_model1_OG.pth (torch, 278522 bytes, 20 tensors)

layer1.0.weight f4 [32, 1, 4, 4]
000000 ae 37 86 3e 31 03 79 bd 85 10 df bc 62 f3 07 be
       0.26214355 -0.06079406 -0.027229557 -0.13276437
000010 eb 5c 55 3e b7 60 17 be 57 ad 44 3e fb c1 74 bd
       0.20836227 -0.14782988 0.19206749 -0.059755307
000020 4a bd 85 bc a2 4b df bd c8 48 16 be cf 78 bd bd
       -0.016325612 -0.10903098 -0.14676201 -0.09251558
000030 3e 70 89 3e 7d 2c 05 be 2e 9e d7 bd 27 96 19 be
       0.26843446 -0.13005252 -0.10528217 -0.14998685
000040 c7 95 ac 3d 86 65 43 bd a6 1e 1a be 8b cf 40 be
       0.08427005 -0.047704242 -0.15050754 -0.18829171
000050 41 12 3c be ce 14 42 be 84 4c 2b 3e 3b 15 67 be
       -0.18366338 -0.18953249 0.16728407 -0.22566693
000060 f7 3f e6 3d c7 ec 03 bd 69 80 90 3e d0 d3 09 bd
       0.11242669 -0.03220823 0.2822297 -0.033649266
000070 79 4e 12 bd 0c 10 88 3d 3c 88 1e 3e 6a ca 03 3e
       -0.03571937 0.06643686 0.15481657 0.12870184
000080 b3 0b aa 3e f4 a6 6f bd d7 8b 8d 3d 03 3b 3d 3e
       0.3321205 -0.05850883 0.06911438 0.18479542
000090 01 d0 4d 3d 20 31 62 3d 4c 74 71 3b 69 79 e6 3c
       0.050247196 0.05522263 0.0036843 0.028134065
0000a0 8f 48 69 3e 8f 37 b2 bd 54 fe 69 be a1 cf 53 3e
       0.22781585 -0.08702003 -0.22850925 0.20684673
0000b0 e6 55 e5 3d 7c 81 fb 3c 7f 4b 2f bd 77 03 09 3c
       0.111980245 0.030701391 -0.042796608 0.0083626425
0000c0 45 9a 1a 3e 7c 89 2e 3e 31 41 4d 3c 8c 11 91 be
       0.15097912 0.17044634 0.01252775 -0.283337
0000d0 98 26 c4 bd f1 ee b5 bd 2c 2c 6a 3b f0 8c 8d be
       -0.09577674 -0.08883465 0.0035731895 -0.2764659
0000e0 16 a4 4a 3c 35 7e bb bd f5 82 58 3c 67 1f 50 be
       0.012368223 -0.091549315 0.013214816 -0.20324479
0000f0 c9 2e 8f 3e 8c 7b 69 bc 8d d5 5a be a3 cb f6 3d
       0.27965382 -0.014250647 -0.21370526 0.12050559
000100 1a 16 d8 bd 39 3a 1b be 44 08 e1 bd c1 2b e8 bd
       -0.105510905 -0.15158929 -0.10987905 -0.113364704
000110 9c f9 df bd 53 ed 5e bd 6b 7c f0 bd 22 73 5f bd
       -0.10936281 -0.05442555 -0.11742481 -0.05455316
000120 43 6f b6 bb 98 90 27 3e f3 71 5c bd f3 a3 86 bd
       -0.0055674626 0.16363752 -0.053819608 -0.065742396
000130 b5 06 81 3e 3a 24 1f bd 14 51 f4 3d f9 7c 1e be
       0.2520043 -0.038852908 0.11929527 -0.15477361
000140 c4 e1 91 be 19 33 82 bd 1a dd 81 bd 7b a3 84 3d
       -0.28492558 -0.06357402 -0.06341 0.06476494
000150 d6 d0 53 be 24 11 8b be 24 8e 5c 3e dc 2c 16 3e
       -0.20685133 -0.27161515 0.21538597 0.1466555
000160 ba 4e 63 be 87 0b 27 be 87 78 fd bc 2e 8c 01 3e
       -0.22198 -0.16312991 -0.030941261 0.1265113
000170 4b ce 2b 3e 26 d1 66 3e cc 3d d3 3c 47 b7 31 bd
       0.16777913 0.22540721 0.025786303 -0.043387678
000180 2d ba 85 bd e4 1c 56 be e8 db 4c bd 0e 9e 3d 3e
       -0.06529651 -0.20909458 -0.050014406 0.18517324
000190 f0 8f 43 3e f3 4b 1c be 0c 37 13 3e 1c 60 92 3d
       0.19097877 -0.15263347 0.14376467 0.07147238
0001a0 e0 6a 62 3e e1 3e 60 3d fd e5 ef 3d 9f 48 26 be
       0.22111082 0.054747466 0.11713789 -0.1623864
0001b0 a6 91 42 3c 75 ee 65 3d 08 49 0e 3e 87 85 2e bd
       0.011875546 0.056135613 0.13895047 -0.04260781
0001c0 75 61 01 3e a4 6c d0 3d 7e 27 e5 bd 7f 74 2d 3e
       0.12634833 0.101769716 -0.11189173 0.16938971
0001d0 de f0 2e 3e c4 88 9a be 24 bf 2a 3e bd cd c2 bd
       0.17084071 -0.3018247 0.16674477 -0.09511898
0001e0 0b 89 a2 bd 4b 8e aa be be af 44 3e 7e 49 0e be
       -0.07936295 -0.33311686 0.19207665 -0.13895223
0001f0 33 eb 65 bd 67 60 10 be 72 14 7b be 02 88 90 bd
       -0.056132507 -0.14099275 -0.24519518 -0.070571914
000200 43 5a 07 3b 9d b5 32 be 97 41 12 3e 57 17 15 3e
       0.0020653165 -0.17452092 0.14282833 0.14559685
000210 3c 6f 84 bd 68 04 8f bc cd 5b 5a 3e 2b 94 61 3e
       -0.06466529 -0.017458156 0.21324082 0.22029178
000220 ca e6 fd 3d 95 ef 11 be 14 f7 db bb 7d 81 ff 3d
       0.12397535 -0.1425155 -0.0067128036 0.1247587
000230 4f 0a 1a be bf fe 8d bb 4a 77 25 be 5d d7 8a 3e
       -0.15042995 -0.0043333466 -0.16158786 0.27117434
000240 6e b2 47 bc 49 a6 60 3e 73 53 3c 3e 90 9b 8b bd
       -0.012188537 0.21938433 0.18391208 -0.068167806
000250 a5 51 e8 3d 2e eb 8b 3d 77 6d 04 bd 3d 5e ec 3b
       0.113436975 0.06831966 -0.032330956 0.0072133825
000260 02 d4 d6 3d d6 b1 bf bd d5 0e ce bd 10 c3 21 bd
       0.10489656 -0.093600914 -0.10061423 -0.039492667
000270 7b eb b8 3d 69 29 1f be 7b 01 5c be e8 72 08 be
       0.09029289 -0.1554314 -0.2148494 -0.13325083
000280 25 26 cf bd ac ba 54 3e 68 9f ed bd 0d ce 08 3c
       -0.10114697 0.20774335 -0.1160267 0.008349908
000290 be 5e 3d be 25 9c 8f bd cc 71 6e 3e 70 86 26 bd
       -0.18493173 -0.07012204 0.23285598 -0.040655553
0002a0 d8 73 23 3e 53 55 35 39 2b 3c 4d be ef 60 99 3d
       0.1596216 0.00017293291 -0.20042484 0.07489192
0002b0 ae 1a 27 be c4 44 7b 3e c8 36 63 bd bb f2 43 3b
       -0.16318771 0.24537951 -0.055472165 0.0029899317
0002c0 5b 26 1f 3e 4c 19 75 3d f3 71 4b 3d 1f e1 b7 bd
       0.15541975 0.059838578 0.049669217 -0.08978485
0002d0 a1 d2 32 3e 30 a6 64 3e 68 92 04 3e 39 09 08 3e
       0.17463161 0.2232902 0.12946475 0.13284768
0002e0 11 3e 1b 3d 72 73 6b be e1 b6 ed 3c 75 41 34 be
       0.037900988 -0.22993258 0.029017868 -0.17603095
0002f0 04 a8 68 3d c3 e4 eb bd b1 7f 92 3d d5 4b 04 be
       0.056800857 -0.11518242 0.071532615 -0.12919553
000300 fa a9 81 be 40 a2 bf bd 67 11 bf bd 2c 92 34 bd
       -0.25324994 -0.093571186 -0.09329491 -0.044084713
000310 a0 96 01 3e 97 a7 9c bd 4b 2d 14 3d f4 1a ec 3d
       0.12655115 -0.07649153 0.036176007 0.115285784
000320 9f 7e 3f be 53 96 5a 3e 42 84 ad 3d 76 77 3b be
       -0.18700646 0.21346407 0.08472492 -0.1830729
000330 d1 8e 8f be 24 c6 69 3e 61 fd b2 bd fa 25 4b 3e
       -0.28038648 0.22829491 -0.087397344 0.19838706
000340 d2 29 ec 3c 83 03 52 3e 09 e6 46 be da 46 34 be
       0.028828535 0.20509152 -0.19423689 -0.17605153
000350 81 f9 43 3d bb 0c c1 bd 45 56 4b be b3 64 3f be
       0.047845367 -0.09426256 -0.19857128 -0.18690757
000360 c7 26 c6 3d dc ab 18 3e 0c e1 0c be 4d 5e d1 3d
       0.09675365 0.14909309 -0.13757724 0.102230646
000370 8a e9 58 3e f3 a1 0d be 08 0c 01 3e 1f 4a 2b 3e
       0.21182838 -0.1383131 0.12602246 0.16727494
000380 fc 54 8a 3e 70 11 17 3e a8 91 fc 3d 9d 9f 01 be
       0.27017963 0.14752746 0.12332469 -0.12658544
000390 69 37 fe bd 90 ab fe 3d ab 19 ee bd fc 53 60 3e
       -0.124129124 0.12435067 -0.116259895 0.21907037
0003a0 21 67 5c 3e f3 fc 5a be 85 18 c0 bd 25 61 54 be
       0.21523716 -0.21385555 -0.09379677 -0.20740183
0003b0 13 5b 31 be 1b 07 84 bd c2 ee 37 bc 62 f0 c0 3d
       -0.17319898 -0.06446668 -0.011226358 0.094208494
0003c0 4a df 8d 3b d1 ce 07 3e 39 20 a8 3d 11 45 53 3e
       0.0043295966 0.13262488 0.08209271 0.20631815
0003d0 f1 50 09 bd e0 cd ca 3d 12 ce 08 3e 92 58 54 be
       -0.033524457 0.09902549 0.1335986 -0.20736912
0003e0 e9 06 69 3d 4f 51 0e be 7d 7d 23 be 0d 27 71 be
       0.056891356 -0.13898204 -0.15965839 -0.23550053
0003f0 99 a4 d6 bd f5 d5 42 3e 8c 21 14 be 7f f5 23 bc
       -0.10480613 0.1902693 -0.14465922 -0.010007261

layer1.0.bias f4 [32]
000000 5e df 37 bd a6 84 8f ba 94 f3 a0 be 4d 42 ad 3d
       -0.044890754 -0.0010949566 -0.31435835 0.084599115
000010 4f 52 54 be 4e 20 30 3e 0a 78 b9 3d ec 55 77 3e
       -0.20734523 0.17199823 0.09056099 0.2415387
000020 58 eb 61 be ec fb d7 3d 6f fd 21 be 72 05 6c 3e
       -0.22062433 0.10546097 -0.15819333 0.23048952
000030 ce 3d c1 3d 53 95 dd bd 9e 6f 72 bd 59 43 bf 3d
       0.094356164 -0.10819497 -0.059188478 0.093390174
000040 93 71 7a bd 2c 4d 93 3c 1a 87 dc bd cb b6 8e be
       -0.06114347 0.017981134 -0.10767956 -0.27873835
000050 7b dd b1 3d d7 3e 21 be 15 f6 8b be 93 cc 4d 3d
       0.08684822 -0.15746628 -0.27336183 0.050243925
000060 72 f5 33 be 06 a8 63 bc e5 3f d8 3d 9c b8 04 3e
       -0.17574099 -0.01389504 0.10559062 0.12961048
000070 18 c3 3b be d0 d1 be bd 61 4f 9b be 02 1a ea bd
       -0.18336141 -0.09317362 -0.30334 -0.11430742

layer1.1.weight f4 [32]
000000 51 5d 72 3f 25 11 7b 3f fe dd 7d 3f 58 dd 67 3f
       0.9467364 0.98073035 0.9916686 0.9057212
000010 58 d5 78 3f 58 ff 72 3f 0e e2 77 3f be d1 74 3f
       0.97200537 0.94920874 0.9682931 0.9563254
000020 e5 65 81 3f 87 ec 7e 3f 17 61 87 3f 84 6b 81 3f
       1.0109221 0.9957966 1.0576504 1.0110936
000030 73 95 7b 3f 58 f1 88 3f 11 33 8d 3f ec e9 6f 3f
       0.98274916 1.0698652 1.1031209 0.9371631
000040 9a 47 73 3f 1f 4c 7b 3f 55 96 82 3f 04 b7 71 3f
       0.9503113 0.98163027 1.0202128 0.94419885
000050 2f d1 83 3f 52 e1 7d 3f 99 64 82 3f f4 08 76 3f
       1.0298213 0.99171937 1.018695 0.9610741
000060 3b fb 7e 3f 4d b1 88 3f 63 a9 85 3f 07 26 79 3f
       0.996021 1.0679108 1.0442318 0.9732365
000070 94 af 74 3f 61 4c 83 3f 16 46 75 3f b4 2b 76 3f
       0.9558041 1.0257684 0.9581007 0.96160436

layer1.1.bias f4 [32]
000000 17 99 6e 3d b2 f2 73 3d c0 e9 59 bd 80 be ca 3d
       0.058251467 0.059557624 -0.053201437 0.09899616
000010 0b 2b ff 3d 94 f7 ba 3d fe 86 75 be fd 51 05 3e
       0.12459382 0.09129253 -0.23977277 0.13019557
000020 b5 b2 2a be c7 ac 23 3e 0e e4 6d 3c 3f b2 38 bd
       -0.16669734 0.15983878 0.0145197045 -0.045091864
000030 55 8f 26 bb ed 63 27 bc 17 37 f0 bd aa 2e be 3d
       -0.0025415022 -0.010216695 -0.117292576 0.09286244
000040 cc eb d0 3d 70 97 11 be 72 61 32 be 5f a8 28 bd
       0.10201225 -0.14217925 -0.17419985 -0.041176196
000050 ca ab d2 3b 88 e1 2a 3e 87 80 d2 bd 8e 6f a1 bb
       0.0064291703 0.16687596 -0.10278421 -0.0049266284
000060 a0 34 fb bd 12 df 4c bc 37 92 35 be 0e ef 82 3b
       -0.12265897 -0.012504356 -0.17731558 0.0039957827
000070 ca 79 30 3d 6f 1c 57 bd 37 ea ec 3d 41 b5 e9 bc
       0.043084897 -0.05251735 0.115681104 -0.028528811

layer1.1.running_mean f4 [32]
000000 a8 44 42 c1 e7 f8 89 c0 38 b4 2a 42 04 31 c3 c1
       -12.141762 -4.3116336 42.675995 -24.398933
000010 bf 08 ea c1 ff a0 91 c1 04 47 c6 41 d6 4f f9 c1
       -29.25427 -18.203611 24.784676 -31.163982
000020 f3 e0 c7 41 56 a0 3b c0 f2 fc df bd aa 3b 95 41
       24.984838 -2.9316611 -0.10936917 18.654133
000030 55 98 61 c1 60 ab 6b 3e 91 a6 39 40 d2 80 c7 c0
       -14.09969 0.23014593 2.9007914 -6.234475
000040 4d 02 85 c0 58 b3 1e c1 16 87 fb 41 e6 0d 85 c1
       -4.156531 -9.918785 31.44096 -16.631786
000050 bf da b7 3c b6 43 91 bf 5d ee 73 41 38 7f b5 bf
       0.022443173 -1.1348789 15.245694 -1.4179449
000060 25 33 a7 be c1 5b 11 41 ae c3 64 40 27 07 66 c2
       -0.32656208 9.084901 3.5744433 -57.506985
000070 20 92 ab c1 d0 60 85 41 28 90 13 c2 50 aa a3 bf
       -21.44635 16.672272 -36.890778 -1.278635

layer1.1.running_var f4 [32]
000000 f1 a5 d4 42 bb 67 2b 42 3b 06 d6 43 b7 6b 4d 43
       106.324104 42.8513 428.04868 205.42076
000010 1d a1 5b 43 ce 06 25 43 ac 16 1b 43 ec 6c 84 43
       219.62935 165.02658 155.08856 264.85095
000020 aa 1c 4d 43 58 fa 59 42 04 57 12 41 41 1c e1 42
       205.11197 54.494476 9.146244 112.55518
000030 43 fc 9e 42 8a 72 53 42 cd c9 ef 41 e3 2a 1e 42
       79.4927 52.861855 29.973536 39.54188
000040 dc f1 97 41 bc 1d 2d 42 8a dd 84 43 f1 2d c0 42
       18.993095 43.279037 265.73077 96.08973
000050 cd 93 5e 41 b2 26 d5 41 46 46 78 42 b5 ef 57 42
       13.911084 26.643894 62.068626 53.98409
000060 39 03 a2 41 26 25 71 42 1d 43 91 41 f5 51 47 44
       20.251574 60.286278 18.15777 797.2806
000070 e2 04 f2 42 4f e8 cc 42 f2 bd a0 43 d0 70 1d 42
       121.00954 102.45373 321.48395 39.36017

layer2.0.weight f4 [64, 32, 4, 4]
000000 a5 48 50 3c 0d 63 54 bc 6a 3c 1e bd 83 0c 10 3d
       0.012712632 -0.012963069 -0.038631834 0.035168182
000010 de 1a a4 bc 58 82 03 bd 43 83 92 ba 9b c3 d5 3c
       -0.020032343 -0.032106727 -0.0011178035 0.026094249
000020 1d 18 94 bb ec 93 0b bd 50 75 28 bd 47 9e c2 bc
       -0.004519476 -0.034076616 -0.041127503 -0.023757113
000030 61 1b 22 3c 00 d2 29 bd ed 56 7a bc f8 f7 b6 ba
       0.009894223 -0.041460037 -0.015279514 -0.0013959398
000040 5c 48 01 3a 36 06 bb bc 71 26 9b bb dd 95 34 3c
       0.0004931742 -0.02283011 -0.004734807 0.011022058
000050 48 4d 9e bc 90 35 97 bd 97 0e 30 bd 2b 04 94 bc
       -0.01932396 -0.07383263 -0.042982664 -0.018068394
000060 cf 6e d9 bc 69 e0 bc bd 58 5b d8 bd 25 33 40 3c
       -0.026542095 -0.0922249 -0.105642974 0.011730944
000070 a1 e6 db bc 0f 15 0e bc 3c b9 d8 bc 27 b4 8c bb
       -0.02684337 -0.008672013 -0.026455514 -0.004293937
000080 6d 5e 2b 3c 09 ad 87 3c 13 df 24 bd e2 f9 75 bc
       0.010459525 0.016562002 -0.040251803 -0.01501319
000090 e7 5b 9d bc d0 c6 a2 3b bf b0 5d bd bb ee 45 bd
       -0.019208862 0.004967548 -0.054123636 -0.048323374
0000a0 e7 81 af 3c a7 cc cd bc f5 fc c9 3c db a0 bd 3c
       0.021424247 -0.025122 0.024656752 0.02314799
0000b0 72 71 51 3c 45 4a 4b 3c 36 76 02 bd 08 50 a2 bc
       0.012783395 0.012407844 -0.031851016 -0.019813552
0000c0 b8 51 b6 3c 91 c5 76 3b bc 0e cb bc 7b 79 fc 3b
       0.022255763 0.003765438 -0.0247873 0.0077049113
0000d0 ff fe b8 3c 46 cf dc 3c d6 57 80 3b e3 d2 bd 3c
       0.02258253 0.026954304 0.003916721 0.023171848
0000e0 e5 49 48 bd 60 95 a0 bc 6b a1 1a 3d 86 d6 cd 3c
       -0.048898596 -0.019602478 0.037751596 0.025126707
0000f0 2e 35 eb 3c c6 4e 15 bd 3d 48 39 3c a4 de be bc
       0.028711881 -0.036452077 0.011308727 -0.023299523
000100 97 d5 5e bb 18 0f 75 3c 3f 90 87 3c e1 8e be 3b
       -0.0034001821 0.014957212 0.016548274 0.0058153723
000110 27 7b 1a bc 23 56 52 3c a2 4a 32 3d 5f 95 15 3c
       -0.009428776 0.012837919 0.043528207 0.009129851
000120 2f 23 1b 3d a2 78 03 bd 20 96 ce bc 10 e4 f7 3c
       0.03787535 -0.032097466 -0.02521807 0.030260116
000130 00 64 c9 bc fa c8 19 bc ed b6 a6 3c 5a bb 9d bc
       -0.024583817 -0.009386295 0.020350898 -0.019254375
000140 bd b4 da bb 26 7f 2b 3d d3 23 b2 3c 70 ea 66 3d
       -0.0066743777 0.041869305 0.021745598 0.05637592
000150 3e 72 58 3b 40 b3 ed 3a 8c 6d 00 3d 23 9e 5d 3c
       0.0033027078 0.0018135086 0.031354472 0.013526472
000160 74 69 b6 bc 01 f8 61 3d e3 c1 5d bb 13 19 54 bd
       -0.02226708 0.055168156 -0.003383749 -0.051781725
000170 b7 6c 90 3c 99 77 62 3d c9 92 fc 3c d3 e6 68 bc
       0.017629964 0.05528984 0.030831711 -0.014215189
000180 06 32 17 bb 73 98 07 bc 23 ca 50 bd 5e d5 42 bd
       -0.0023070588 -0.008276093 -0.050974023 -0.047566764
000190 b3 66 79 bc d6 aa 4f bd 89 60 43 bd 1a 42 06 bb
       -0.015222239 -0.05070003 -0.047699485 -0.0020486177
0001a0 52 2b b8 bc e2 b4 fa 3b f7 2e 4d bd 62 ba 90 3c
       -0.022481594 0.0076509574 -0.050093617 0.017667
0001b0 4c b2 1f bc 90 93 ec 3b 2f 24 34 bd 13 d5 85 39
       -0.009747099 0.0072197393 -0.04397982 0.0002552649
0001c0 21 93 77 bc 7c b4 a4 bc ab be 84 3b 89 1d 26 bc
       -0.015110762 -0.020105593 0.0040510497 -0.010138878
0001d0 5c ba 57 3a 40 8a ba 3c db 75 03 3d ee d4 01 bc
       0.0008229369 0.022771 0.032094818 -0.007924302
0001e0 f9 be 00 bd 1c 50 96 3c fe 8f cc bc 9b 75 ec 3c
       -0.031432126 0.018348746 -0.024971005 0.028864672
0001f0 0c 20 98 bc 51 00 a5 bb d9 bf 47 bd a4 22 29 bd
       -0.018569969 -0.005035438 -0.048766945 -0.0412928
000200 28 fb f5 bc 34 eb 5e bc 20 f6 1a bd b9 c7 df 3c
       -0.030026987 -0.0136058815 -0.03783238 0.027316915
000210 43 b6 99 3c 21 95 4c 3c be 96 49 3c d7 89 a0 bb
       0.018763667 0.012486727 0.012304006 -0.0048992443
000220 f9 e6 21 3c 56 26 ea 3b ad 70 82 bc d5 63 09 bd
       0.009881728 0.0071456833 -0.015922869 -0.033542473
000230 37 6d 18 3c a4 e7 55 3c 02 aa 5a 3d 2e 68 d8 bb
       0.009303383 0.013055716 0.05338479 -0.006604216
000240 32 eb 8d 3d 13 c3 7f 3d 9a e6 e1 3c 9f a7 47 3d
       0.069296256 0.062441897 0.02757578 0.04874384
000250 c3 82 03 3d 10 79 1e 3d b6 e5 72 3c 87 4d 7c bc
       0.032107126 0.038689673 0.014825275 -0.015399343
000260 4d 9b 52 3d 4a a0 41 bc ad de 34 3d 6b 9e 5a bb
       0.051417638 -0.011818001 0.044157673 -0.0033358585
000270 f1 7d 9d bc 97 c4 cd ba 9a c8 1c 3d b0 55 21 3d
       -0.019225093 -0.0015698847 0.038277246 0.03938836
000280 ae 91 57 bd 1c bc c8 bc 12 a4 7a bc a8 b9 a8 3c
       -0.052629165 -0.02450376 -0.0152979065 0.02059634
000290 58 fb 8e bd f9 98 07 3c 1c ca ae bd e8 0c 24 bd
       -0.06981534 0.008276218 -0.08534643 -0.04005137
0002a0 55 17 3c bd 13 21 0b bd 26 70 ab bd 78 39 08 be
       -0.04592069 -0.03396709 -0.08371 -0.13303173
0002b0 09 a5 86 bd 03 35 ea bc cc 66 50 bd 19 f9 71 bd
       -0.06574447 -0.028589731 -0.050879285 -0.05907545
0002c0 c5 bb 4f bb f1 f2 4c bd 22 19 16 bc 92 c7 53 bd
       -0.0031697613 -0.050036374 -0.009161266 -0.051703997
0002d0 a3 cd 92 bc 44 18 90 bc fc a2 2e bc 3e 77 d9 3c
       -0.01792032 -0.017589696 -0.010658976 0.026546117
0002e0 e2 19 31 bd 34 cb b4 3c 42 f5 26 3d 77 52 19 bd
       -0.043237574 0.022069551 0.04076124 -0.03743216
0002f0 2d 73 95 bc d6 25 27 3d c9 c3 ab bc 92 d5 88 3c
       -0.018243397 0.040807568 -0.020967381 0.0167034
000300 72 36 d2 3c 35 17 12 3c 00 21 b8 bc 5f 11 e5 bc
       0.025660727 0.008916666 -0.022476673 -0.027962385
000310 9d 5b 3f bc 76 e3 30 3d 05 83 40 3c e3 aa cb bc
       -0.011679557 0.043185674 0.0117499875 -0.024861759
000320 ab 10 b7 bc 1e 89 24 3b 49 30 d8 3c 65 a3 a9 3c
       -0.022346815 0.0025106142 0.026390212 0.020707795
000330 98 4f e5 bc 54 30 1f 3d de 1e 1d 3d 75 5d f1 bc
       -0.027992055 0.03886445 0.038359515 -0.02946351
000340 3c 37 94 bd 6c 58 03 be da 08 88 bd 7e 4e 6f bc
       -0.072370976 -0.12826699 -0.06642313 -0.014606116
000350 d9 91 b1 bc 65 5d ed bc 67 1b 0e be a3 64 1f 3d
       -0.02167599 -0.028975198 -0.1387764 0.038914334
000360 a3 13 3e bc 38 22 4d 3c 83 ef 31 bd 45 3b 89 bd
       -0.011601361 0.012520365 -0.043441307 -0.06700758
000370 dd ea 4d bd 8d 17 39 3d 4a 43 f7 bc 3a 8c af bc
       -0.05027281 0.045188475 -0.030183453 -0.02142917
000380 de 07 f3 3c 37 31 1e bd d0 f3 d8 3c c5 4a cc 3c
       0.029666837 -0.038621154 0.026483446 0.024937997
000390 75 5d 11 bc 1f a6 90 3c c6 83 54 3b af 3c 89 bc
       -0.00887238 0.017657338 0.0032427176 -0.016752569
0003a0 7e 34 8f 3c 08 9e 46 3c 84 56 1d 3c 9b 77 72 bc
       0.017481085 0.0121226385 0.009603146 -0.014799024
0003b0 11 10 43 3d cc 54 92 bd 04 4d 08 3d 68 4c 82 bc
       0.047622744 -0.0714508 0.033276573 -0.015905574
0003c0 c4 e3 91 bc 6b d3 cc 3c 09 1b 4a 3d 2a 38 99 39
       -0.017808802 0.025003156 0.04934219 0.0002922428
0003d0 57 a5 80 3c 1f 88 36 3d 32 e1 d0 bb c5 40 1c 3d
       0.01570384 0.04456341 -0.0063745016 0.038147707
0003e0 75 30 39 bc aa 8a a9 3c 9e 54 0b 3a 2e 3b 6c bb
       -0.011303057 0.020696003 0.0005315038 -0.0036046016
0003f0 4b d8 03 bd 50 f5 3d bd c3 bd 76 bd de 47 9b 3a
       -0.032188695 -0.046376526 -0.060239565 0.001184698

layer2.0.bias f4 [64]
000000 62 ea 97 bc c2 bc 8d bc 3d 31 26 3d 93 61 f0 3c
       -0.01854438 -0.01730192 0.0405743 0.029343402
000010 7e 89 e7 3b 56 0d a7 3c 5a bd 55 3d 55 8e ab bd
       0.007065951 0.020392101 0.052182533 -0.08376757
000020 4f 05 a7 3d f7 82 92 3d 55 29 6a 3d 29 1c 77 bd
       0.081553094 0.07153886 0.057168324 -0.06032959
000030 64 98 f4 bc 2c ad 18 3d d6 16 14 3c 6b 36 21 3d
       -0.029857822 0.037274525 0.009038648 0.039358538
000040 a3 1f e7 ba c4 76 b0 3c 4f 85 c6 3c 58 b9 83 3d
       -0.001763333 0.021541007 0.024233488 0.06431836
000050 94 0a 51 bb a2 81 60 3d d9 0a 92 3c 1f c0 24 3d
       -0.0031897174 0.054811127 0.017827438 0.040222283
000060 47 d9 12 bd a1 45 a0 3c e4 97 59 ba d7 e2 37 bd
       -0.035851743 0.019564452 -0.00083005265 -0.044894066
000070 81 4b be 3c 88 74 18 bc 97 58 8d bc 88 65 ff 3a
       0.023229362 -0.009305127 -0.017254157 0.0019485215
000080 74 71 8e 3d 46 f0 2f 3d ec 50 26 bd 9e b3 00 3d
       0.06955233 0.042953752 -0.040604517 0.031421296
000090 79 ef af 3d 6f 94 f7 3b e2 47 18 bd 6d 9d 6f 3c
       0.08590598 0.0075555365 -0.037177928 0.014624936
0000a0 d3 37 22 bd 9c d1 d4 bc 52 b6 49 bd a4 5f 13 3d
       -0.03960402 -0.025978856 -0.04924614 0.035979882
0000b0 3d e4 38 3d e4 41 a9 3c 0d d2 8b 3d 16 22 a2 3c
       0.04513954 0.020661302 0.068271734 0.019791644
0000c0 2c 28 32 3c 8a 22 1e bd ce 58 9e 3d e5 a6 92 3d
       0.0108738355 -0.038607158 0.07731782 0.07160739
0000d0 b5 2c 43 3c ae d0 c6 bc 25 3b 41 3d be 22 b8 3d
       0.011912514 -0.024269428 0.047175545 0.089910015
0000e0 7b 34 d5 3b bd c9 db 3b 83 e7 f3 3d 09 c3 bf bc
       0.0065065003 0.0067073987 0.11909392 -0.02340843
0000f0 37 04 c2 bc 79 39 4f bd 50 6a 72 bd f0 10 59 bd
       -0.02368365 -0.05059192 -0.05918342 -0.05299467

layer2.1.weight f4 [64]
000000 6d 95 7d 3f 92 8c 7d 3f 42 e2 74 3f 81 9e 79 3f
       0.9905613 0.9904262 0.9565774 0.9750748
000010 39 13 80 3f 0d 91 7e 3f c7 3c 70 3f 83 0a 76 3f
       1.0005866 0.9944008 0.9384274 0.9610979
000020 d5 c8 76 3f 67 85 7c 3f d8 bf 72 3f 21 4c 6f 3f
       0.96400195 0.98641056 0.9482398 0.9347554
000030 6d 7a 82 3f 53 4b 75 3f 3c ae 6e 3f 33 3f 87 3f
       1.0193611 0.9581806 0.9323461 1.0566162
000040 c5 58 80 3f 25 a6 81 3f 8e ec 80 3f f5 96 79 3f
       1.002709 1.0128828 1.0072191 0.9749597
000050 aa e7 83 3f 4d 14 7c 3f 6d 0a 84 3f df 49 79 3f
       1.0305073 0.98468477 1.0315682 0.97378343
000060 61 16 7a 3f 5e ae 83 3f a3 46 81 3f 0d 08 80 3f
       0.976904 1.0287588 1.0099682 1.0002457
000070 8f 71 7b 3f 04 82 80 3f 61 be 76 3f dc 8a 7b 3f
       0.9822015 1.0039678 0.96384245 0.9825876
000080 70 e8 81 3f b5 04 85 3f 15 dd 7b 3f 63 91 82 3f
       1.0149059 1.0392061 0.9838422 1.0200619
000090 2b ad 7b 3f e3 f7 83 3f 2b 2d 83 3f 76 03 8a 3f
       0.9831111 1.0310024 1.0248159 1.0782306
0000a0 03 b5 7b 3f cc a9 7b 3f d1 53 80 3f d2 3c 80 3f
       0.98323077 0.98305964 1.0025579 1.0018561
0000b0 d8 14 7b 3f 11 80 75 3f da f3 83 3f f8 34 7b 3f
       0.9807868 0.9589854 1.0308793 0.981277
0000c0 95 2c 83 3f 39 f6 6e 3f d3 b8 72 3f 88 51 80 3f
       1.024798 0.93344456 0.9481327 1.0024881
0000d0 d2 7c 72 3f 99 9a 76 3f af a2 79 3f 27 6a 74 3f
       0.9472171 0.9632965 0.9751386 0.95474476
0000e0 b0 fa 7b 3f 8b c1 8a 3f 7f 8f 75 3f 2a 3f 77 3f
       0.98429394 1.0840315 0.9592208 0.96580756
0000f0 ca 64 84 3f de 46 71 3f 62 d8 7d 3f 71 08 80 3f
       1.0343258 0.9424876 0.991583 1.0002576

layer2.1.bias f4 [64]
000000 26 02 bf be 57 7c 40 bd ab 36 e9 bd 1d 15 5c bd
       -0.37306327 -0.04699358 -0.1138738 -0.053731073
000010 3a 88 cc 3d 64 22 16 bd 99 6d 8e bd 16 1d 23 be
       0.09986921 -0.03665389 -0.06954498 -0.15929064
000020 a1 61 8a bd 6b b1 3d bd 0f 50 00 be bc f5 54 bd
       -0.067569025 -0.046311777 -0.1253054 -0.051992163
000030 9f b3 ed bc e2 6a c1 3d 8f 0b fb bd 25 f6 0d 3d
       -0.029016314 0.094442144 -0.12258064 0.03465857
000040 6d ff 31 bd 7d 14 3d ba c0 0f af 3d a6 28 dc bd
       -0.043456484 -0.0007212831 0.08547926 -0.107499406
000050 a8 1a d1 3d da 9d 74 3d 8e f8 d1 3d c3 c3 2e bd
       0.102101624 0.05972085 0.10252486 -0.04266716
000060 08 35 02 be 79 a4 09 be bf e6 cb 3d 06 b8 29 3d
       -0.12715542 -0.13441648 0.09956121 0.041435264
000070 2c 2a 20 bd 24 ae e9 3d e7 1b 99 bd 06 25 56 bd
       -0.03910272 0.11410168 -0.07476025 -0.052281402
000080 fc 18 a9 3b 4c 38 62 bd 0a 90 d8 bc f5 a3 cc 3d
       0.005160449 -0.05522947 -0.02643587 0.0999221
000090 15 6d 0b bd a5 eb 85 3d 40 a5 15 be f5 6e 23 bd
       -0.034039576 0.06539086 -0.14613819 -0.03990074
0000a0 4b 6b 7e 3d 9f b5 47 bd 3a 4e ad 3d 1c 35 57 bc
       0.06211404 -0.04875719 0.08462186 -0.013135221
0000b0 cf c1 62 bd 8d 1e b1 3c 8e fd 06 3e 9d a4 79 bd
       -0.05536061 0.021621013 0.13182661 -0.060948003
0000c0 d9 90 23 3e 60 90 d8 bd f3 53 74 bd c1 70 9b bd
       0.15973224 -0.10574412 -0.059650373 -0.075898655
0000d0 5b 87 bb bd 8a 8c 56 bd 84 c6 5d bd 0e 79 a9 bc
       -0.091566764 -0.052380122 -0.054144397 -0.020687606
0000e0 92 f5 ab 3c 68 01 87 bc a6 70 0d 3d b2 fd 32 bd
       0.02099112 -0.016480163 0.034531258 -0.043698974
0000f0 7d b0 d7 bd d7 01 93 bd 7c cd 08 3d 38 68 e7 3c
       -0.10531709 -0.07178085 0.03339909 0.028247938

layer2.1.running_mean f4 [64]
000000 25 27 d9 be 80 62 7f be d7 ff 27 bf 99 0b d1 bf
       -0.42412677 -0.24939919 -0.65624756 -1.6331664
000010 48 62 91 be 12 2c 33 3e 8d 7c dc 3e ff db f0 be
       -0.28395295 0.1749728 0.43063775 -0.47042844
000020 7b 7e 53 3c 4a 2a be 3d cf 28 bf bd 82 d3 40 bf
       0.012908573 0.0928541 -0.093339555 -0.75322735
000030 b3 00 b1 bf f9 bc 28 be a6 7d fb 3c 09 d3 14 3e
       -1.3828338 -0.16478337 0.030699562 0.14533629
000040 ba bd 5e 3e 9c 69 bb 3e 23 cd 53 be c7 4e ae 3e
       0.21752062 0.3660401 -0.20683722 0.34044477
000050 7c 2f 3e bf 77 d4 82 bf aa e3 43 3f 67 9d 70 3f
       -0.74291205 -1.0221089 0.7651926 0.93990177
000060 6a 42 08 bc 41 2a a4 be 9c 8c 6a bf 7e 88 4d bf
       -0.008316616 -0.32063487 -0.916208 -0.80286396
000070 04 93 3b 3e cc 34 31 be a8 0c 9d 3e 5c b5 d1 bf
       0.18317801 -0.17305297 0.30673718 -1.6383471
000080 7e 46 eb bf 56 99 a3 bd 04 f8 29 3d 21 10 58 be
       -1.8380888 -0.07988231 0.04149629 -0.21099903
000090 ed 81 b6 be 8c 0a 38 c0 e7 e4 90 bf c1 4c de 3d
       -0.35646 -2.8756437 -1.1319855 0.108544834
0000a0 61 6c 47 bf 0a 52 88 bb a5 84 36 bf 2a b4 94 bd
       -0.7789975 -0.0041601704 -0.7129615 -0.07260926
0000b0 87 34 47 3e 82 53 e1 3f 6d 04 95 3e c2 38 17 40
       0.19453631 1.760361 0.2910494 2.3628392
0000c0 f1 b5 f9 3e a3 39 3f be 18 a1 91 3e 76 e1 9f be
       0.48771623 -0.1867433 0.28443217 -0.312267
0000d0 e6 49 e8 bd 02 7f 51 3f 4c 70 42 3e 19 60 fc be
       -0.1134222 0.81834424 0.1898815 -0.49292067
0000e0 1a f6 84 3f 72 fc a4 3d 3d 91 a3 be b9 a0 89 bf
       1.0387604 0.080559626 -0.31946746 -1.0752174
0000f0 1d c8 8d bf a8 ec c0 bf d3 69 d7 be 43 ac fd bd
       -1.1076695 -1.5072222 -0.42072925 -0.12386372

layer2.1.running_var f4 [64]
000000 16 53 2c 3e 51 82 42 3f e5 55 f3 3e 78 2f 1b 3f
       0.1682857 0.759801 0.4752647 0.60619307
000010 9c 33 05 40 be 52 7b 3f b7 ec b1 3e f2 c5 e2 3e
       2.081275 0.9817313 0.34750912 0.44291645
000020 97 ec 15 3f 8f 06 51 3e b5 bd 5a 3e 33 5f 80 3f
       0.5856413 0.20412658 0.2136143 1.0029052
000030 bf b3 2e 3f a8 d2 76 3e 9c 13 af 3e 4b 21 18 3f
       0.6824302 0.24103796 0.34194648 0.594258
000040 46 b9 83 3e db b8 ac 3f 83 11 3c 3f 04 7f aa 3e
       0.2572729 1.3493913 0.7346422 0.3330003
000050 dc b5 a4 3f 5e 83 d9 3e 9b b3 3a 3f 4a c6 1e 3f
       1.2867999 0.42483038 0.72930306 0.62021315
000060 6a d9 43 3e 56 14 a7 3e e0 3e f4 3f a8 f2 58 40
       0.19125906 0.32632703 1.9081688 3.3898106
000070 00 d4 8e 3f 6d 92 aa 3f 24 9a a2 3e 7f 44 24 3f
       1.1158447 1.3325936 0.31758225 0.64167017
000080 09 c7 3f 3f 5b c5 3d 3e 1b a3 85 3f 91 87 47 3f
       0.7491308 0.18532316 1.0440401 0.7794123
000090 fe e6 1c 3f 6e e3 1f 40 62 84 00 3f 10 b9 78 3e
       0.61289966 2.4982562 0.50202 0.24289346
0000a0 de 7e 4c 3f ce 77 a5 3e ba 24 e0 3f 69 1c f6 3f
       0.79881084 0.32317966 1.7511208 1.922742
0000b0 5e d4 c9 3f c8 df 68 3f 3d 32 e7 3e 8b 1b a7 3f
       1.5767934 0.90966463 0.45155516 1.305528
0000c0 3c 3d 00 3f c8 fc 49 3e dd de f4 3e e6 11 bc 3e
       0.50093436 0.19725335 0.4782628 0.36732405
0000d0 af 62 09 3f 20 1f 07 3f 6f 7c c9 3e f8 f2 85 3f
       0.53666204 0.5278187 0.39352748 1.0464773
0000e0 c1 b2 9d 3f 00 3d cf 3e 0b 1a 57 3f ea 19 02 3f
       1.2320176 0.40476227 0.84024113 0.5082079
0000f0 c1 74 0d 3f bf 71 33 3f b5 11 ef 3e a6 f0 98 3e
       0.5525628 0.7009544 0.46693197 0.298711

layer3.0.weight f4 [64, 32, 4, 4]
000000 3d 80 28 3d 53 5a 2c 3d 13 86 b9 3c 56 3b 5e 3d
       0.041137923 0.042078327 0.02264694 0.054255806
000010 1d 55 26 3d 58 6e a5 3c db 5d df 3c a8 e7 c9 3c
       0.040608514 0.020194218 0.027266433 0.024646595
000020 ad d8 a3 3c 29 29 81 3c ba 04 b1 3b 55 ec 32 3d
       0.02000078 0.015766697 0.005402175 0.043682415
000030 16 10 87 3d 78 17 1d 3d 51 2d 57 3d 87 5e 38 3d
       0.06594865 0.03835246 0.05253345 0.045012023
000040 03 f6 8b bb 99 a2 8b bd bc 3d 5d ba aa 7d d1 bd
       -0.0042712702 -0.068181224 -0.000843968 -0.10229047
000050 a2 d3 09 bd 33 12 03 3a ab 49 9e bc f1 bf 8a 3c
       -0.033649094 0.00049999653 -0.019322237 0.016937228
000060 65 69 69 bb 54 2e fd bc a0 86 c2 bb 36 cc 73 bd
       -0.0035615799 -0.03090588 -0.0059364587 -0.059520923
000070 40 b7 a6 bd f2 68 4b 3b 6e 31 80 bd e4 c8 04 bc
       -0.08140421 0.0031037894 -0.06259428 -0.008104537
000080 c4 52 5a bd c0 dd 99 bc 2d 15 a2 bc f9 fd 5f bd
       -0.053301588 -0.018782496 -0.019785488 -0.054685567
000090 77 e0 ba bc f7 e9 b9 bc 83 d4 a8 bc c8 94 ef bc
       -0.022812111 -0.022694571 -0.020609146 -0.02924575
0000a0 b3 7f 07 bc 8b 11 2c bd 7f 0a 07 bd 0a e5 25 bd
       -0.008270192 -0.042008918 -0.032968994 -0.04050163
0000b0 24 93 ad 3b 81 c9 ff bc 48 97 05 bd 99 70 81 bc
       0.0052970815 -0.031224014 -0.032614976 -0.015800761
0000c0 7e 02 a3 bd 90 d5 ce bb 66 47 a5 bd bc 13 3d 3b
       -0.0795946 -0.0063120797 -0.08070259 0.0028850874
0000d0 c6 09 75 3c 06 6d 33 bc b0 0e 04 bb eb 33 68 bd
       0.014955943 -0.010951286 -0.0020150356 -0.056690138
0000e0 12 f2 18 bd d8 28 75 bb 9f eb 71 bc cf e1 0d 3b
       -0.03734023 -0.0037408378 -0.014765649 0.0021649485
0000f0 66 26 a5 3c e0 90 0a bd 4c 0f d0 3c 4b ae 82 bd
       0.020159911 -0.03382957 0.02539792 -0.063809
000100 85 72 e0 bc e4 e3 e7 3b 20 a4 e9 bc 85 77 42 bc
       -0.027398357 0.007076727 -0.028520644 -0.011869316
000110 fb b3 98 bc 9d 56 92 bc a4 54 b0 bc 6a ab 26 bd
       -0.018640509 -0.017863566 -0.021524735 -0.040690817
000120 d6 5e 54 bb c1 31 17 3b a5 0a ed 3b 77 ee 84 3c
       -0.003240516 0.0023070427 0.007233935 0.01622699
000130 04 34 3f bc 6d 18 83 bc 3a 2e c7 bb aa 61 68 bc
       -0.011670116 -0.016002858 -0.0060785087 -0.014183441
000140 ab 97 81 bb 3b 59 87 bd 8f 4b 36 ba b4 3b c4 bd
       -0.003954848 -0.06608816 -0.0006954008 -0.095817
000150 1e 17 41 bd d9 dc be 3a 2c 59 09 bd 92 30 28 3a
       -0.047141187 0.0014561667 -0.033532307 0.0006415929
000160 3b 7a 53 bb 33 0c 1e bd 50 be 64 3c b7 2f 42 bd
       -0.00322689 -0.038585853 0.01396139 -0.047408786
000170 09 3b bf bd b4 57 76 ba bd a7 46 bd 40 b4 07 3c
       -0.09337432 -0.0009397224 -0.04849981 0.008282721
000180 4f 99 54 bd 56 4b e1 3c ca 94 8c bd 64 79 04 3c
       -0.05190402 0.027501743 -0.06864317 0.008085582
000190 2b 23 66 ba 24 e0 f5 bc ce fd 31 3b f0 b3 b5 bd
       -0.0008779044 -0.030014105 0.0027159336 -0.08872211
0001a0 4a 27 00 bd db cc de bc 53 32 15 bd cb bc 71 bc
       -0.03128747 -0.027197292 -0.036424946 -0.014754484
0001b0 7e 83 63 bd 99 a3 ae bd a2 32 13 bd 52 99 d8 bd
       -0.055545323 -0.085272975 -0.03593696 -0.105761185
0001c0 69 c4 97 bc d9 b2 a1 bc 06 7e 57 bc 13 0f e6 bc
       -0.018526273 -0.019738602 -0.013152605 -0.02808336
0001d0 88 f3 7b bc d3 31 8d bc d2 6b cc bc 64 82 99 bc
       -0.015377887 -0.017235672 -0.024953756 -0.018738933
0001e0 f2 52 07 bd 46 0a b7 ba 2d 63 18 3b 37 89 cf bc
       -0.033038087 -0.0013964854 0.0023252473 -0.025333984
0001f0 b4 79 9f bc 8a 39 04 3c d1 c3 93 bc 07 32 a8 bb
       -0.019467212 0.008070359 -0.018037708 -0.005132917
000200 69 d8 3c bc 98 5a 71 bb 7e 09 6b bc 61 56 3b bc
       -0.011526206 -0.003682768 -0.014345525 -0.011434169
000210 ae 24 0d bd e0 80 f1 bc 89 8d 34 bd 01 1e 90 bd
       -0.03445881 -0.029480398 -0.04408029 -0.07036973
000220 31 9f 83 3b 8a 2b 68 bb 8a 69 8d 3b d6 bc 22 bc
       0.00401678 -0.0035426342 0.0043155598 -0.009932717
000230 60 eb 9a bd ca 11 3e bd c3 8e 4e bd d8 96 77 bd
       -0.075644255 -0.046403684 -0.050429117 -0.06044659
000240 f2 0a 0d bd cc d5 ee 3c af c3 94 bc 5a 43 2a 3d
       -0.034434266 0.02915468 -0.018159715 0.041568138
000250 2f 4d 59 3d ff a8 d7 3c a6 29 ff 3c 7b 8b 45 3d
       0.053052124 0.0263257 0.03114779 0.048228722
000260 bf e2 05 bd 2f dd c0 3c 9c cb 1e bd 4d f9 8d 3d
       -0.032686945 0.023542969 -0.038768396 0.06932316
000270 b2 3d a8 3d 5e b4 3c 3d aa 75 76 3d 5a d1 5f 3d
       0.082148924 0.04607045 0.060170807 0.054643013
000280 c4 6a 11 bd 4a 0a df bb 91 09 d8 bc c3 b3 28 bd
       -0.03550221 -0.0068066465 -0.02637175 -0.04118706
000290 33 8e a6 bc 83 6e 25 3c b1 32 ad bc 33 8b 51 3c
       -0.020331478 0.010097149 -0.021142336 0.012789535
0002a0 5b 57 48 3c b3 f4 0c 3c ad bf 8f bb 3d 9e 2d 3b
       0.012227858 0.008603263 -0.004386863 0.0026492022
0002b0 f8 99 27 3c 09 64 a1 3c ad 39 7e bb 62 0b e7 3b
       0.01022958 0.01970102 -0.0038791702 0.0070509175
0002c0 2d be a7 bd aa ad b1 bc ea 63 b1 bd d8 22 3a bd
       -0.0819057 -0.021689255 -0.08661635 -0.045443386
0002d0 7a b1 09 bd 3d 0d 8e bc cb 12 fa bc c5 64 bd 3b
       -0.03361652 -0.017340297 -0.03052654 0.005779835
0002e0 f0 8a 55 bd 90 ad f2 bb de 73 96 bc d4 26 13 3c
       -0.052134454 -0.007405944 -0.018365797 0.008981425
0002f0 30 c3 85 bd 5b 07 19 bc 3a 4e 6e bd 24 4d 27 3b
       -0.0653137 -0.009340133 -0.05818007 0.0025528157
000300 a4 bc 7e bd 52 b7 01 bb d9 1a 8f bd be 6a 0e ba
       -0.06219162 -0.0019793105 -0.06987543 -0.0005432776
000310 86 53 2d bd 85 f5 91 bb 16 06 6f bc 7d f4 02 bc
       -0.042315982 -0.004454317 -0.014588853 -0.007992861
000320 67 72 22 bd 7a 0e 23 ba ec 53 05 bd c4 69 d2 ba
       -0.039659884 -0.0006220114 -0.032550737 -0.0016053249
000330 14 2e 94 bd c9 92 18 bc d8 95 33 bd 8b bf 0b 3a
       -0.07235351 -0.00931234 -0.043844074 0.00053309713
000340 10 44 c3 ba da 92 06 bd 51 58 af bc 8e 03 fe bc
       -0.0014897604 -0.032854892 -0.021404417 -0.031007554
000350 2d a2 01 bd 3f d5 25 bd 63 cd b2 bc d2 ae fe bc
       -0.031648804 -0.04048657 -0.021826452 -0.03108922
000360 f1 39 91 bc 4c 55 f7 bc df e9 54 bc f4 2a 90 bb
       -0.017727824 -0.03019204 -0.012995212 -0.0043996517
000370 f7 c2 38 bd e1 4f 38 bd 94 6e ee bc 52 dd 03 bd
       -0.045107808 -0.044998053 -0.029105462 -0.03219349
000380 6a 0e ef bc 1e 51 a9 bc 34 a5 a4 bc 7e 72 01 bd
       -0.029181678 -0.020668563 -0.020098306 -0.03160333
000390 e3 57 cf bc e6 2c 98 bb 7a ef 29 ba f6 a6 e2 3b
       -0.025310462 -0.004644024 -0.0006482523 0.006916876
0003a0 c1 44 13 3a 10 18 ac ba 97 ab 0e ba d1 ff a6 3c
       0.000561785 -0.001312973 -0.0005442439 0.020385655
0003b0 67 01 6d bc 30 f6 04 3c 1e 75 6c 3a ab 26 8d 3c
       -0.014465666 0.008115336 0.00090201374 0.017230352
0003c0 ee 70 43 bb a4 aa bd bc 6f 48 5b bc 41 3b b7 bc
       -0.002982195 -0.023152657 -0.013383969 -0.022367122
0003d0 f5 e1 64 bc 4a b3 89 3b ec bc 85 bc 20 5d 8d bc
       -0.013969888 0.004202281 -0.016325437 -0.01725632
0003e0 dd 3f 05 3b 01 c4 6f bc aa 68 85 3a 83 c7 04 bd
       0.0020332255 -0.014634133 0.0010178287 -0.03241683
0003f0 c9 6d ac bc bc 7e cd bb 96 93 ac bc 8a 64 b1 bc
       -0.021048443 -0.0062712114 -0.021066468 -0.021654386

layer3.0.bias f4 [32]
000000 5c 5e bc 3d f7 d4 d4 3d eb 0c 54 bc 66 31 59 3d
       0.09197685 0.10392182 -0.012942533 0.053025626
000010 f9 bc 0c be 02 56 0e 3d 1e 85 7e bd b9 cc 12 3d
       -0.13743962 0.034749992 -0.06213867 0.03583977
000020 b8 aa bf 3c 13 1d 71 bb c9 e8 3f bd 04 22 1b bc
       0.023396835 -0.0036791011 -0.04685286 -0.009468559
000030 aa 82 2f 3d 58 51 ce bd d1 cc 4a bc 64 a8 2c 3d
       0.04284922 -0.10074109 -0.012377934 0.042152777
000040 bb 7a 0f be 2a 0e 87 3d a3 e7 1a 3b f8 7c 12 bd
       -0.14011662 0.065944985 0.0023636601 -0.03576371
000050 a3 b9 f6 3c ab 11 d1 bc f8 b5 7b 3d 53 8a f1 3c
       0.030117815 -0.02552112 0.061452836 0.029484903
000060 30 05 fa 3c dd 0c 91 bd 9a 76 ba bd 52 3c 88 bd
       0.030520052 -0.070825316 -0.09104653 -0.0665213
000070 a9 e6 00 bd 72 1e 75 bd 03 30 5c 3d f7 8b 6b bd
       -0.031469975 -0.059843488 0.053756725 -0.057506528

layer3.1.weight f4 [32]
000000 58 99 b1 3f b4 e5 b2 3f 25 36 b3 3f c9 82 ad 3f
       1.3874922 1.397635 1.4000899 1.3555537
000010 fc c0 ae 3f 51 4e b1 3f 55 79 b5 3f 0d 55 af 3f
       1.3652644 1.3852025 1.4177653 1.369783
000020 08 2d b2 3f 55 58 b3 3f 20 42 af 3f ad c1 b2 3f
       1.3919992 1.4011332 1.3692055 1.3965355
000030 86 de ac 3f 79 ca af 3f 0b ca ac 3f c0 e7 ac 3f
       1.3505409 1.3733665 1.3499159 1.3508224
000040 7c e6 b3 3f 81 32 b8 3f 07 db b2 3f 97 85 b3 3f
       1.4054713 1.4390413 1.3973092 1.4025143
000050 cd 31 ab 3f d0 8e b6 3f 0a 86 ad 3f c5 e9 b8 3f
       1.3374573 1.4262333 1.355653 1.4446341
000060 fe 06 b3 3f c6 3d bb 3f 1b e9 b2 3f 99 8d b3 3f
       1.3986509 1.4628227 1.3977388 1.4027587
000070 30 88 b1 3f 49 a7 a9 3f a3 cc af 3f a4 e7 ac 3f
       1.3869686 1.3254176 1.3734325 1.3508191

layer3.1.bias f4 [32]
000000 5b d2 96 3e b6 46 c6 3e ff 31 be 3e 0b 3e b6 3e
       0.29457363 0.38725823 0.3714752 0.3559421
000010 aa 83 ae 3e f5 2a c7 3e f1 9c c7 3e dc 5f b9 3e
       0.34084827 0.3889996 0.38986924 0.36205947
000020 84 82 c9 3e a8 b0 9b 3e 5f 48 b1 3e 9a b4 c7 3e
       0.39357388 0.30408216 0.34625527 0.39004976
000030 65 66 b2 3e 06 d3 bb 3e 6e c1 a6 3e 88 c2 aa 3e
       0.34843746 0.36684436 0.3256945 0.3335154
000040 40 66 a9 3e 53 58 9d 3e be e9 b7 3e d9 82 d6 3e
       0.33085823 0.3073145 0.3592052 0.41896704
000050 68 c8 ab 3e 7c 6a 91 3e 61 d6 b9 3e a2 7d 9e 3e
       0.33551335 0.28401554 0.3629637 0.30955225
000060 cc d8 b1 3e d6 8c a1 3e ac 75 d2 3e 63 d0 7c 3e
       0.34735715 0.31552762 0.41105402 0.24688868
000070 07 b6 c6 3e 2e 72 9b 3e 39 02 c6 3e cc a2 8e 3e
       0.3881075 0.3036055 0.3867357 0.2785858

layer3.1.running_mean f4 [32]
000000 34 36 f8 3d aa 6b 19 3e 59 46 02 3e 78 5b 1b 3e
       0.121197134 0.14982477 0.12722148 0.15171611
000010 52 4b b9 3c f9 b3 ee 3d 2e 4b 5e 3e 07 8f c8 3d
       0.022618923 0.11655421 0.21708366 0.09792905
000020 e0 fb 43 3e 8a 89 cb bc 03 74 d7 3d b4 e0 1b 3e
       0.19139051 -0.024845857 0.10520174 0.15222436
000030 a8 8b 31 3e 7e d4 c0 bd bd 0c 7f 3d 21 51 9d 3d
       0.17338431 -0.0941553 0.062268008 0.0768149
000040 9f 32 b9 bd 83 78 8d 3d f4 12 aa 3e a6 68 ef 3d
       -0.09042858 0.069077514 0.33217585 0.11689882
000050 a1 35 0c 3e 44 bb 19 bc d0 a4 11 3e 34 a2 da bd
       0.13692333 -0.0093830265 0.14223027 -0.10675469
000060 e2 ea 7f 3d 50 5e fd bd 6c 09 90 3c 04 a6 00 be
       0.06247986 -0.12371504 0.017582618 -0.1256333
000070 73 b1 22 3e 4a ff ec bc b4 9d 4a 3e 05 0c 17 bd
       0.15888004 -0.028930325 0.19786721 -0.036876697

layer3.1.running_var f4 [32]
000000 89 ff 54 3c 93 5e 06 3d 6c c9 e8 3c 48 3b b2 3c
       0.013000377 0.032805037 0.028416358 0.021756783
000010 27 6f 93 3c ec 1d a6 3c db 1f 04 3d 72 b7 77 3c
       0.017997338 0.02027794 0.032256942 0.01511942
000020 55 5e b6 3c 81 f8 67 3c f6 1e a8 3c 29 26 bd 3c
       0.022261778 0.014158369 0.020522576 0.023089485
000030 d2 75 02 3d b6 ad 8f 3c b3 c7 9e 3c 7e 7c 58 3c
       0.031850643 0.017538887 0.019382333 0.013213275
000040 0c 00 b9 3c 38 60 97 3c c6 e8 70 3d ef 20 03 3d
       0.02258303 0.018478498 0.05881574 0.03201383
000050 0e 2b a6 3c 37 7e 9b 3c 84 64 ad 3c 14 a5 8e 3c
       0.020284202 0.018981082 0.021166094 0.0174127
000060 5c e4 8f 3c a7 df 9d 3c 0b 18 26 3d 35 2c b8 3c
       0.017564945 0.019271685 0.040550273 0.022482017
000070 fa 83 db 3c 3b fa 68 3c 53 78 db 3c 72 8a c1 3c
       0.02679633 0.014219816 0.026790773 0.023625586

layer4.0.weight f4 [32, 2, 4, 4]
000000 08 67 12 3f b9 49 c7 3e e7 2c 29 3f 25 2d 0c 3f
       0.57188463 0.38923433 0.6608414 0.54756385
000010 49 eb 25 3f 4b 29 07 3f df 65 b7 3e 94 a6 01 3f
       0.6481214 0.52797383 0.3581991 0.50644803
000020 59 89 08 3f f5 73 19 3f 4d 9f e5 3e 90 32 0f 3f
       0.53334576 0.5994256 0.448481 0.5593653
000030 a2 e4 0a 3f 61 73 fa 3e 53 ff 02 3f 02 ee 09 3f
       0.54255116 0.48916152 0.51170844 0.53878796
000040 e8 47 12 3e 9e d4 36 3e d7 b2 13 3e aa 77 47 3e
       0.14285243 0.17854545 0.1442369 0.19479242
000050 8a f3 a7 3e 3d 06 78 3e 12 64 af 3e bd 1e 8e 3e
       0.32802993 0.2422113 0.34256035 0.27757826
000060 f7 7f a1 3e 68 b3 c9 3d 0b 12 13 3e c2 70 85 3e
       0.31542942 0.09848672 0.14362352 0.2606259
000070 bd 5e 2c 3e e1 88 a9 3e 7c 34 78 3e 63 89 14 3e
       0.16833015 0.33112243 0.24238771 0.14505534
000080 c0 96 fd be e2 0e d5 be 80 2a a6 be 90 d5 8b be
       -0.49529076 -0.41612917 -0.324543 -0.27311373
000090 16 7b 77 be cf a2 8e be 08 1c 08 bf 82 57 de be
       -0.24168047 -0.27858588 -0.5316777 -0.43426138
0000a0 1c f8 4b be 2d 31 d7 be ef f3 cd be f8 a1 ac be
       -0.19918865 -0.42029706 -0.4022517 -0.33717322
0000b0 df 7b 96 be 56 b9 ec be b1 94 b0 be 13 c9 c6 be
       -0.2939138 -0.4623515 -0.34488443 -0.38825282
0000c0 7d ed 54 3e 3f 0b 1b 3e ff 94 d2 3e 44 40 ba 3e
       0.2079372 0.15141009 0.411293 0.36377156
0000d0 9b 85 47 3e 13 41 3d 3e c8 15 4a 3e 3f aa c3 3e
       0.1948456 0.18481855 0.19734871 0.38215825
0000e0 10 58 b2 3e aa 52 9b 3e 85 cb 1c 3e 92 54 70 3e
       0.3483281 0.30336505 0.15312012 0.23469761
0000f0 88 59 06 3e 57 79 28 3e a8 de a1 3e f3 91 48 3e
       0.13120091 0.16452537 0.31615186 0.19586925
000100 b7 3a 97 3e 0e 2d 9b 3d a0 79 ab bb 76 92 82 3d
       0.29536983 0.07576953 -0.0052330047 0.063755915
000110 41 e9 35 bc e4 c7 0e 3d f8 d4 08 3e 38 a4 a7 3e
       -0.011102975 0.0348586 0.13362491 0.32742476
000120 50 5b 3c 3d 85 5e fa 3c 5e a9 39 3e 5e b6 76 3e
       0.04598552 0.030562649 0.18131015 0.24093005
000130 ce 90 e4 3d 84 e0 4f bd 95 98 c2 3d a9 be 64 3d
       0.11160432 -0.050751224 0.09501759 0.05584589
000140 e1 45 1b 3e 10 7d 8c 3e 51 dc d8 3e 0d 05 43 3e
       0.15163375 0.27439165 0.42355588 0.19044895
000150 b8 83 1f 3e 0f d1 9a 3e 75 b6 a7 3e b1 3b 61 3e
       0.1557759 0.30237624 0.3275639 0.21995427
000160 a6 b9 ba 3e 30 8c 94 3e 61 48 b5 3e 52 f8 55 3e
       0.36469764 0.29013205 0.35406783 0.20895508
000170 0c e1 3c 3e 51 18 d0 3d 7f 8b c5 3e 6f fe 8b 3e
       0.18445224 0.10160888 0.3858299 0.27342555
000180 86 ae 0a bf 10 f1 d9 be 0e eb f6 be fb 61 a3 be
       -0.5417255 -0.4256673 -0.48226207 -0.3191069
000190 e3 fa f3 be 2c 55 a9 be 50 b0 86 be b4 a6 d9 be
       -0.4765235 -0.33072793 -0.2630639 -0.42509997
0001a0 52 89 90 be 4a 32 b3 be c2 e1 05 bf 39 94 60 be
       -0.28229767 -0.34999305 -0.52297604 -0.21931542
0001b0 1c b7 77 be 9e fa fe be 24 db bb be 19 82 98 be
       -0.24190944 -0.4980058 -0.3669063 -0.29786757
0001c0 4e 02 b8 3e f3 99 b8 3e b7 b6 18 3e ee 1c 6f 3e
       0.35939258 0.36054954 0.1491345 0.2335088
0001d0 db e1 b4 3e 40 1e a9 3e 2a b3 be 3e c6 7d 79 3e
       0.35328564 0.3303089 0.37246066 0.24364385
0001e0 44 f7 9c 3e cc 29 8b 3e 77 c8 4d 3e ac f1 ad 3e
       0.306574 0.27180326 0.20096003 0.33973444
0001f0 3c 6c 9e 3e b3 9a b6 3e 55 0a 42 3e 1b 5e 60 3e
       0.3094195 0.356649 0.18949254 0.21910898
000200 e8 75 cf be 4a 50 15 bf f3 9c a7 be 73 f5 90 be
       -0.40519643 -0.58325636 -0.3273693 -0.28312263
000210 f2 63 c2 be 25 a4 f3 be 15 26 f4 be a2 81 77 be
       -0.37966877 -0.4758617 -0.47685304 -0.24170545
000220 8f e1 0a bf f0 3b 8f be c0 44 10 bf 71 a9 e1 be
       -0.54250425 -0.27975416 -0.56354904 -0.44074586
000230 2f 28 bb be 01 be 8f be 68 cb 9a be bb c2 f9 be
       -0.36554095 -0.2807465 -0.30233312 -0.4878138
000240 65 2e 8e 3e fc 30 aa 3e cf 9e a5 3e 72 77 85 3e
       0.2776977 0.33240497 0.32347724 0.26067692
000250 e3 9a 6e 3e fc 19 b7 3d e2 78 1a 3e 40 f8 93 3e
       0.23301272 0.08940503 0.15085176 0.28900337
000260 c9 a5 a4 3e 20 50 6c 3e e0 71 bd 3e fd 83 d3 3e
       0.32157734 0.2307744 0.37000942 0.41311637
000270 0f dd 84 3e ae 75 c5 3e 9a 11 c5 3e 2f 0a d1 3e
       0.25949904 0.38566345 0.3848999 0.40828082
000280 69 f1 82 be 50 9a ce be e1 82 67 be 48 2a 0f bf
       -0.25574806 -0.40352106 -0.2260852 -0.5592389
000290 29 3e c6 be bb 54 f5 be ec d0 dd be a6 ab df be
       -0.387193 -0.47916207 -0.43323457 -0.43685645
0002a0 f5 e0 0f bf 00 7b 07 bf d8 95 c2 be 1b 77 b8 be
       -0.5620263 -0.5292206 -0.38004947 -0.3602837
0002b0 bd 46 9e be 1b 07 03 bf 99 28 ee be c3 5e 09 bf
       -0.30913344 -0.5118272 -0.4651535 -0.5366022
0002c0 98 66 ad 3e 2a 49 c6 3e 26 d6 df 3d a8 7e 8d 3e
       0.33867335 0.38727695 0.109295174 0.27635694
0002d0 4d b0 47 3e 19 f7 40 3e b0 be 0d 3e 1f 4d 8e 3e
       0.19500847 0.1884426 0.13842273 0.27793214
0002e0 cd 5f be 3e dc 49 4b 3e ed 64 e4 3e a5 ea da 3e
       0.37182465 0.19852394 0.4460825 0.42757145
0002f0 29 ff a0 3e e3 8e 1e 3e 28 d4 57 3e 20 2e 35 3e
       0.31444672 0.15484194 0.21077025 0.17693377
000300 28 ea 68 be 7b b8 80 be 3e c8 f8 be 0a 66 b5 be
       -0.22745574 -0.25140747 -0.48590273 -0.35429412
000310 71 41 6d be f9 80 a4 be 93 76 d0 be 93 f5 e2 be
       -0.23169495 -0.32129648 -0.40715465 -0.44327983
000320 03 0d 9f be 14 73 39 be 02 70 a7 be c7 7c d1 be
       -0.31064615 -0.18110305 -0.32702643 -0.4091551
000330 6b 1b 91 be 9d f8 34 bd cd c3 84 be 1b 34 8a be
       -0.2834123 -0.04418241 -0.25930634 -0.26992878
000340 94 bc 7f 3e 0d e6 28 3e b2 5b d4 3e 86 49 40 3e
       0.2497428 0.16494007 0.41476208 0.18778047
000350 50 b0 9c 3e a7 9d b8 3e b5 d5 c8 3e 86 d8 40 3e
       0.30603266 0.3605778 0.39225546 0.18832597
000360 ba fa b5 3e 55 2c 8b 3e a6 73 a1 3e b6 d2 90 3e
       0.35542852 0.2718226 0.31533545 0.2828576
000370 8c 53 97 3e 51 2d 32 3e 2f 23 89 3e 68 30 41 3e
       0.2955593 0.174001 0.26784655 0.18866122
000380 f7 b8 fa bd e6 f8 57 3c 19 5c 6e be 9a 13 df bd
       -0.122423105 0.013181901 -0.2327732 -0.108924106
000390 d9 db 16 be df c2 31 be 72 5e 86 bd a3 52 d6 bd
       -0.14732303 -0.17359494 -0.06560983 -0.104649805
0003a0 d3 60 e8 bd 4d bf 09 be 39 d5 55 be ec 5f 41 be
       -0.11346593 -0.13451882 -0.20882119 -0.18884248
0003b0 ca 11 89 be 7b ab 37 be b4 bd fd bd bb 2d 42 bd
       -0.26771384 -0.17936508 -0.123896986 -0.047406893
0003c0 db ec 8d 3e 02 78 d4 3e cd 2e 32 3e 3b db 81 3e
       0.2771977 0.4149781 0.17400666 0.25362572
0003d0 0c aa 88 3d fc 12 d2 3e 2a 14 75 3e 3d 1b 97 3e
       0.06673059 0.4103011 0.23933473 0.2951297
0003e0 2b fe e8 3e e5 d9 8b 3e 32 21 a6 3d db 95 4f 3e
       0.45506415 0.27314678 0.081118 0.20272009
0003f0 8f a2 73 3e 21 7c 71 3e 1c 9c d0 3e 5c 09 a9 3e
       0.2379248 0.23582508 0.40744102 0.33014953

layer4.0.bias f4 [2]
000000 94 bb c0 3e c3 3b 60 3e
       0.3764311 0.21897797
